lenet5_wd.pth (torch, 249951 bytes, 10 tensors)

fc1.weight f4 [6, 1, 5, 5]
0	0xbe8de108	-0.27710748
1	0xbbd5def3	-0.0065268218
2	0x3dd089c6	0.10182528
3	0x3d8f1c52	0.069878235
4	0x3e64912f	0.22321008
5	0xbd56e008	-0.052459747
6	0x3e102d00	0.14079666
7	0x3ca56d65	0.020193765
8	0x3ddc9fee	0.10772692
9	0x3ea6bcf7	0.32566044
10	0x3d43115d	0.04762398
11	0x3e1f99d3	0.15586023
12	0xbe1be6e3	-0.15224795
13	0x3e42ac89	0.1901113
14	0x3e8d972e	0.27654403
15	0xbbb94066	-0.005653429
16	0xbd4bddfe	-0.049772255
17	0x3dc61ed1	0.096738465
18	0x3eb83a24	0.35981858
19	0x3ead5aed	0.33858433
20	0xbe2e07ef	-0.16995214
21	0xbea79ebd	-0.32738295
22	0xbec537df	-0.3851919
23	0x3e92d686	0.28679293
24	0x3e863d39	0.26218584
25	0x3e290a8c	0.1650793
26	0xbd71d92c	-0.059045002
27	0xbe9102e8	-0.2832253
28	0xbea6bb62	-0.32564837
29	0xbe674713	-0.22585706
30	0xbe829c29	-0.25509766
31	0xbec7a5f1	-0.3899379
32	0xbf2d8161	-0.6777554
33	0xbef70d15	-0.48252168
34	0xbba2f8cc	-0.0049735066
35	0xbe8e3503	-0.2777482
36	0xbf203944	-0.6258738
37	0xbf0f4def	-0.5597829
38	0xbe0abab1	-0.1354778
39	0x3ecfcc04	0.4058534
40	0x3e4271b6	0.1898869
41	0x3da7000d	0.081543066
42	0x3e32d190	0.17462754
43	0x3e754ac5	0.23954304
44	0x3cbc5107	0.022987856
45	0x3e8a193a	0.2697237
46	0x3e1f39cc	0.15549392
47	0x3d38c1d5	0.045106728
48	0x3e1adc16	0.15123019
49	0xbdb77c8c	-0.08959302
50	0xbeae0f91	-0.3399625
51	0xbf00ec33	-0.5036041
52	0x3f1c1657	0.6097159
53	0x3eb1c227	0.3471844
54	0xbdc2add0	-0.09505808
55	0xbe47758d	-0.19478436
56	0xbf006365	-0.50151664
57	0x3ef581ca	0.47950584
58	0x3e038dcc	0.1284706
59	0x3db9bf73	0.09069719
60	0x3e24f456	0.16108832
61	0xbf1dcbb0	-0.6163893
62	0x3ccc2991	0.024922164
63	0x3ec8f54b	0.39249644
64	0x3d0df983	0.03466178
65	0xbd81d205	-0.06338886
66	0xbf060f66	-0.52367246
67	0x3d1421ce	0.03616505
68	0x3efc7ce9	0.4931405
69	0x3d23831f	0.03991997
70	0xbdb5fa73	-0.0888566
71	0xbe9db15c	-0.30799377
72	0x3d26a2c9	0.040682588
73	0x3e315a14	0.17319518
74	0x3e0f0527	0.13966809
75	0x3e722106	0.2364541
76	0xbe6ee2fd	-0.23328777
77	0xbe8206b5	-0.25395742
78	0xbe52face	-0.20603487
79	0x3e9458cd	0.28974
80	0x3ed8df34	0.4235779
81	0x3dbc844f	0.09204923
82	0xbecd0fdb	-0.4005116
83	0xbe344201	-0.17603303
84	0xbd66f447	-0.056385305
85	0x3ea77775	0.32708326
86	0x3f0b0dd3	0.5431797
87	0x3e4be9fd	0.19913478
88	0xbec77bc8	-0.38961625
89	0xbf37b26c	-0.71756625
90	0x3ea4c760	0.3218336
91	0x3e8e90c0	0.2784481
92	0xbe0b525a	-0.13605633
93	0xbf072427	-0.5278954
94	0x3d44853a	0.047978617
95	0x3e93156e	0.28727287
96	0x3e87fb72	0.26559025
97	0xb923af20	-0.0001561013
98	0xbed1c191	-0.40967992
99	0xbe311070	-0.17291427
100	0x3b19f34b	0.0023490961
101	0xbd9c7ca2	-0.07640959
102	0x3e575149	0.21027102
103	0x3e66735b	0.22504942
104	0xbeae6e23	-0.34068403
105	0xbc5802bf	-0.0131842485
106	0x3e164838	0.14675987
107	0x3e219db4	0.15782815
108	0x3f035b1f	0.51310915
109	0xbf4b1a22	-0.7933675
110	0x3cb236e6	0.021754693
111	0x3dda2169	0.10650904
112	0x3d831db7	0.06402152
113	0x3f1d778c	0.6151054
114	0xbf532630	-0.82480145
115	0xbd8de816	-0.069290325
116	0xbe019865	-0.1265579
117	0xbdbe4998	-0.09291381
118	0x3f1cac3d	0.61200315
119	0xbead7956	-0.33881634
120	0x3d385852	0.045006104
121	0xbdc7858d	-0.0974227
122	0xbe1201b0	-0.14258456
123	0x3ed6d7e4	0.41961586
124	0xbe76a239	-0.2408532
125	0xbe896906	-0.2683794
126	0xbbed6800	-0.007245064
127	0x3d16f7e8	0.036857516
128	0x3cf35bc6	0.029706847
129	0x3e1d6280	0.15369606
130	0x3e4662b8	0.19373596
131	0x3eb18b3f	0.3467655
132	0x3e7fa306	0.24964532
133	0x3e0dfa1e	0.13864943
134	0xbdf41276	-0.11917584
135	0xbde05bb3	-0.1095499
136	0x3e7a45e2	0.2444072
137	0x3eea90ed	0.45813695
138	0x3f033bdf	0.5126323
139	0x3e1913dc	0.14948982
140	0x3e396035	0.18103106
141	0x3e4c0c7c	0.19926637
142	0x3e82823d	0.2548999
143	0xbdb236fc	-0.08701894
144	0xbe8e5ca3	-0.2780505
145	0xbca5ed7a	-0.02025484
146	0xbe74c88c	-0.23904628
147	0xbf686b18	-0.9078841
148	0xbf4902f1	-0.78520113
149	0xbeb775bf	-0.3583202

fc1.bias f4 [6]
0	0xbeaccdb4	-0.3375069
1	0xbf3d150f	-0.7386026
2	0x3b615e6a	0.003438855
3	0x3e67d8cf	0.226413
4	0xbca2aa4d	-0.019856596
5	0x3c7ee89d	0.015558389

fc3.weight f4 [16, 6, 5, 5]
0	0xbe0cfcfd	-0.13768382
1	0xbe2d1cbf	-0.16905497
2	0xbd6181df	-0.055055495
3	0xbd2fa841	-0.04288507
4	0xbe6e9ed7	-0.2330278
5	0xbd24fa6c	-0.040277883
6	0x3d2a592d	0.04158895
7	0x3d131d3b	0.03591655
8	0xbce66d8e	-0.028128412
9	0xbde19f66	-0.11016731
10	0x3ce4fd11	0.027952703
11	0x3ccd742d	0.025079811
12	0x3dc71547	0.09720855
13	0x3cabca46	0.020970475
14	0xbd970e2b	-0.07375749
15	0x3d5df59d	0.054189313
16	0xbd7b7e83	-0.061399948
17	0x3e33699f	0.1752076
18	0x3cc39a6b	0.023877343
19	0x3daab76d	0.08335767
20	0xbdf5da1b	-0.12004491
21	0xbe164d89	-0.14678015
22	0xbcdbfa44	-0.026852734
23	0x3cfaa380	0.030595541
24	0x3dc38601	0.095470436
25	0x3e5a2767	0.21304093
26	0x3e62dbdc	0.22154182
27	0xbe392707	-0.18081294
28	0xbec17c86	-0.37790316
29	0xbdb399d8	-0.08769578
30	0x3e92a424	0.28640854
31	0xbcddec13	-0.027090108
32	0xbe13e53d	-0.14442916
33	0x3c9e1b3d	0.019300098
34	0x3e150b44	0.14555079
35	0xbcde94d9	-0.027170585
36	0xbcb2eeff	-0.021842478
37	0xbd8c9f37	-0.06866305
38	0x3da10625	0.078625
39	0x3d351cf1	0.044217054
40	0xbdbbf1f6	-0.0917701
41	0xbd5f087c	-0.05445145
42	0x3df172b4	0.11789456
43	0x3e4b8346	0.19874296
44	0x3d98304e	0.074310884
45	0x3d1e9cdd	0.038723815
46	0x3cb7c2c7	0.022431744
47	0xbd1e89c4	-0.038705602
48	0xbbda4796	-0.0066613657
49	0x3d8c65fe	0.06855391
50	0xbe105384	-0.14094359
51	0x3d40a70f	0.04703432
52	0xbe18d398	-0.14924467
53	0xbde0f97d	-0.10985086
54	0xbd26aa96	-0.040690027
55	0x3d2e2431	0.042514984
56	0x3e18edba	0.14934435
57	0xbdc9a56f	-0.09846007
58	0xbdec4a7f	-0.115376465
59	0xbd14aa9a	-0.03629551
60	0x3df17dee	0.11791597
61	0x3e02b578	0.12764537
62	0xbd2d8a08	-0.042367965
63	0x3e055e01	0.13024141
64	0xbe0b8a86	-0.13627061
65	0x3da578e2	0.08079697
66	0xbd24c92e	-0.040230922
67	0xbe5abc49	-0.21360888
68	0x3e5d82df	0.21631955
69	0xbde78a1c	-0.11305639
70	0xbca959bc	-0.020672671
71	0xbe41fc56	-0.18943915
72	0xbe3ffe00	-0.18749237
73	0x3e0f8a94	0.14017707
74	0xbdd11d3c	-0.10210654
75	0xbdc5099d	-0.09620974
76	0xbe994cd4	-0.29941428
77	0xbe27a1a7	-0.16370259
78	0x3d93228b	0.07184323
79	0xbd75ef3e	-0.060042612
80	0x3d40ebe5	0.047099967
81	0xbd911557	-0.070841484
82	0x3bf2ba35	0.0074074515
83	0x3d9edbad	0.077567436
84	0x3d9d2250	0.0767256
85	0xbd7a8cdb	-0.061169486
86	0xbdd374b1	-0.103249915
87	0x3da19553	0.078898095
88	0x3d8f7041	0.070038326
89	0x3d7d5e04	0.06185724
90	0xbd8d2f19	-0.06893749
91	0xbe981ba4	-0.29708588
92	0xbdb72d09	-0.08944137
93	0xbac71295	-0.0015188033
94	0x3d5c2a94	0.053751543
95	0x3e353cf8	0.17699039
96	0xbe6e9e4f	-0.23302577
97	0x3d4740f9	0.048645947
98	0xbc0ffcd0	-0.008788303
99	0xbe077e37	-0.13231741
100	0xbe445cb8	-0.19175994
101	0xbed14cc5	-0.40878883
102	0xbcc039ea	-0.023465116
103	0xbcc20bca	-0.023687262
104	0x3d3a3167	0.04545727
105	0x3cec8393	0.028871333
106	0x3da01f67	0.078184895
107	0x3d9d02b7	0.076665334
108	0x3c24e5e4	0.010064576
109	0x3d8d0990	0.068865895
110	0xbb883252	-0.0041563893
111	0x3e0d36fd	0.13790508
112	0x3db86ce9	0.09005148
113	0xbd4bb0f3	-0.0497293
114	0x3d4cb274	0.049974874
115	0xbd3a95c5	-0.045552988
116	0xbc1c20be	-0.009529291
117	0x3dee42b8	0.11633819
118	0xbd262727	-0.040564682
119	0xbd2c4ae7	-0.04206362
120	0xbd2d4b29	-0.042308006
121	0xbe1b9e09	-0.15197004
122	0x3e947e58	0.29002643
123	0x3d10e788	0.035377055
124	0xbd2da958	-0.042397827
125	0xbe44d838	-0.19223106
126	0xbdd688b5	-0.104752935
127	0xbcde1db7	-0.027113779
128	0x3d8b28ab	0.06794866
129	0xbe009b94	-0.12559348
130	0xbc68cdb3	-0.014209199
131	0x3d86ff38	0.06591648
132	0x3ca9509c	0.02066832
133	0xbd9076af	-0.07053887
134	0x3da7dbc4	0.08196214
135	0xbd329bd3	-0.043605637
136	0x3de937aa	0.1138757
137	0x3d92bdae	0.07165085
138	0xbd4cb0ba	-0.049973227
139	0x3d0c1586	0.034200214
140	0x3d542b23	0.05179895
141	0x3dcea6c4	0.10090402
142	0xbe04cba0	-0.12968302
143	0x3e0d8410	0.13819909
144	0x3d5e1313	0.05421741
145	0xbd085a4f	-0.03328925
146	0xbdc21cbf	-0.09478139
147	0xbe6a7165	-0.22894819
148	0x3daa3442	0.08310749
149	0x3d6f561c	0.05843173
150	0xbdde253d	-0.108469464
151	0xbddc0305	-0.107427634
152	0xbd0f467b	-0.034979325
153	0xbdb93298	-0.09042853
154	0xbc61331d	-0.0137450965
155	0xbdde84e7	-0.10865193
156	0x3decef6e	0.11569105
157	0xbd726108	-0.059174567
158	0x3bebea94	0.0071995948
159	0xbdd03ee7	-0.10168248
160	0xbdc42539	-0.09577412
161	0x3d133b9c	0.03594552
162	0x3d94282a	0.07234223
163	0xbd33f28d	-0.043932486
164	0xbd2b45c8	-0.041814595
165	0xbca94134	-0.020660974
166	0x3de6db04	0.11272243
167	0x3e3d684b	0.18496816
168	0xbcfc7f45	-0.030822406
169	0xbb8de28c	-0.004329985
170	0x3ab0fd54	0.0013503232
171	0xbd02c3e6	-0.031925105
172	0x3ddf210a	0.108949736
173	0x3d949803	0.072555564
174	0x3cade68e	0.021228101
175	0x3e71b7b2	0.2360523
176	0x3dcc78cd	0.099839784
177	0xbe944ae7	-0.28963396
178	0xbe25405e	-0.16137835
179	0xbc72f3be	-0.0148286205
180	0xbde1160a	-0.10990532
181	0xbd9f8f39	-0.077909894
182	0xbe5ae5ef	-0.21376775
183	0xbd870062	-0.0659187
184	0x3d3c84ae	0.04602497
185	0x3cf4332a	0.029809553
186	0xbd3aecde	-0.04563605
187	0xbc240515	-0.010010977
188	0x3d4b8a5a	0.04969249
189	0x3da4149d	0.08011744
190	0x3cef5043	0.029213076
191	0xbd11d14d	-0.035599995
192	0x3e48fb12	0.19627026
193	0x3e8f6237	0.2800462
194	0xbdd16ae5	-0.10225467
195	0x3de3982d	0.111130096
196	0x3e36680c	0.17813128
197	0x3e87856b	0.26468977
198	0x3e1a7cb3	0.15086631
199	0xbe0580b7	-0.13037382
200	0xbd2618b1	-0.04055089
201	0xbcb024b1	-0.02150187
202	0x3d04e0c5	0.03244092
203	0xbd49db1a	-0.049281217
204	0x3daba54c	0.08381137
205	0x3dbc8e7e	0.09206866
206	0x3e31ce8a	0.17363945
207	0xbd92e6f5	-0.07172958
208	0xbe16b308	-0.14716733
209	0x3e0278bd	0.1274137
210	0x3de9bbdc	0.114127845
211	0x3c13df02	0.009025337
212	0xbcfbf1de	-0.03075498
213	0xbda1401b	-0.07873555
214	0x3dbbf6e3	0.09177949
215	0x3d996df5	0.07491676
216	0xbe21dc24	-0.15806633
217	0xbdac684f	-0.08418333
218	0x3b17afcf	0.0023145562
219	0x3d3f9d4c	0.04678087
220	0xbe229ddb	-0.1588053
221	0xbeb1a224	-0.34694016
222	0xbe026bd6	-0.12736449
223	0xbd9b6715	-0.07588021
224	0xbcd8cc06	-0.026464473
225	0xbdb1f21c	-0.08688757
226	0xbddb5450	-0.10709441
227	0x3cfa48d7	0.03055231
228	0x3e834c4e	0.25644153
229	0x3e205a6f	0.15659498
230	0x3d6a622b	0.057222527
231	0x3cc5fa02	0.024167065
232	0xbbe340ac	-0.0069351997
233	0x3e1acce8	0.15117228
234	0x3e724b33	0.23661499
235	0x3b42189f	0.0029616726
236	0x3d7809be	0.060556166
237	0x3d0ef2de	0.034899585
238	0xbdcfe807	-0.101516776
239	0xbe66b8cf	-0.22531436
240	0x3d26cf60	0.040725112
241	0xbbadd7dc	-0.0053052735
242	0xbdbe1bd7	-0.09282654
243	0xbeaf0c48	-0.34189057
244	0xbe912ac2	-0.28352934
245	0x3d9202dc	0.07129452
246	0xbe810eb5	-0.25206533
247	0xbe05feb0	-0.13085437
248	0xbe3f46f8	-0.18679416
249	0xbeada36f	-0.33913752
250	0xbcb2066a	-0.021731574
251	0xbd3d0b09	-0.046153102
252	0x3def7a27	0.116932206
253	0x3e82ef7b	0.25573334
254	0x3d91f6d5	0.071271576
255	0x3cf1dd68	0.02952452

fc3.bias f4 [16]
0	0xbda4d72b	-0.080488525
1	0xbcd2dfd7	-0.0257415
2	0x3e2c6364	0.1683479
3	0xbded62f5	-0.1159114
4	0xbe1661bc	-0.1468572
5	0xbcca534e	-0.024697926
6	0x3e7360fd	0.23767467
7	0x3cb3d585	0.0219524
8	0xbd96cb6c	-0.073630184
9	0x3db2f15c	0.08737442
10	0x3c7f7d34	0.015593816
11	0x3e8d0e68	0.27550054
12	0x3dbac402	0.09119417
13	0xbd40cb32	-0.047068782
14	0x3bbf4a2c	0.0058376994
15	0xbd1cf6d1	-0.03832132

fc5.weight f4 [120, 16, 5, 5]
0	0x3b41371b	0.0029482308
1	0xbe105095	-0.1409324
2	0xbcb70b44	-0.022344239
3	0xbd13c14a	-0.036073007
4	0x3bcc1c3a	0.006228951
5	0xbd9b2188	-0.07574755
6	0xbcf0b3f1	-0.029382678
7	0x3da4bd78	0.08043951
8	0xbce6b81c	-0.028163962
9	0x3c04ba0e	0.0081009995
10	0xbdb39892	-0.08769335
11	0x3d8109b5	0.063006796
12	0x3d6e32fb	0.058154088
13	0xbd108794	-0.035285547
14	0xbc7710d0	-0.015079692
15	0xbc15905a	-0.009128654
16	0xbac5f5b0	-0.0015103128
17	0x3b3cc4b6	0.0028803772
18	0xbd0e3bb3	-0.034724902
19	0x3ca098e0	0.019604146
20	0xbcfc6574	-0.030810095
21	0x3d6a8c28	0.05726257
22	0xbd0bce22	-0.03413213
23	0x3d24f78b	0.040275138
24	0x3c3098a0	0.010778576
25	0x3a9447f4	0.0011312948
26	0xbd94f9ac	-0.07274184
27	0xbe02e978	-0.12784374
28	0xbc8035ff	-0.015650747
29	0x3db530ee	0.08847223
30	0x3e04c90b	0.12967317
31	0x3d1e8491	0.038700644
32	0xbdc37327	-0.09543448
33	0xbd7f15dc	-0.062276706
34	0xbcd90573	-0.026491856
35	0x3d174540	0.036931276
36	0xbb3b3c86	-0.002857001
37	0xbd84b854	-0.0648047
38	0xba2602bc	-0.0006332805
39	0xbc7e64c4	-0.015526954
40	0x3e0ece2a	0.13945833
41	0x3c682e11	0.014171139
42	0x3d742c20	0.059612393
43	0x3d649046	0.055801652
44	0xbd8fe163	-0.07025411
45	0xbcf6d45f	-0.030130563
46	0xbd6df7d5	-0.05809768
47	0x3d16acdb	0.03678594
48	0x3dd3ef14	0.10348335
49	0xbcec9641	-0.02888024
50	0xbca09f1a	-0.019607116
51	0xbdbbdad3	-0.09172597
52	0x3ccae0f2	0.024765465
53	0xbd3e6ae1	-0.046488646
54	0xbc87d841	-0.01658261
55	0x3e029b7d	0.12754627
56	0xbd9cbbf5	-0.076530375
57	0xbd9bae70	-0.07601631
58	0x3d18f609	0.037344012
59	0x3cba2ba9	0.022725897
60	0xbbbe8c10	-0.0058150366
61	0x3d30b1c8	0.043138295
62	0xbc768a4f	-0.015047624
63	0x3cca28aa	0.024677593
64	0xbc2f8e13	-0.0107150255
65	0x3d3c55db	0.045980316
66	0xbcc88fae	-0.024482574
67	0x3a7ae78e	0.00095712475
68	0x3c02f2fc	0.007992502
69	0xbd33682e	-0.043800525
70	0x3cbd41d4	0.023102678
71	0x3daf0f3c	0.085478276
72	0x3d0c2dc8	0.034223348
73	0x3d6a3730	0.057181537
74	0xbcffbe29	-0.031218605
75	0x3dc1f4a8	0.094704926
76	0x3d893fde	0.06701635
77	0x3cf29d4a	0.029616017
78	0x3e1c6e5c	0.15276474
79	0x3dfd77dc	0.12376377
80	0xbc9b45fc	-0.01895427
81	0x3ca2a4f2	0.019854043
82	0xbcf16ca3	-0.029470747
83	0xba1b11ce	-0.0005915434
84	0x3d7bc684	0.061468616
85	0xbd7d50b3	-0.06184454
86	0x3c4b782a	0.012418786
87	0x3d1c7c04	0.038204208
88	0x3cf6dc8e	0.030134466
89	0x3a7fe47c	0.0009761525
90	0xbdf117c4	-0.11772111
91	0x3c081782	0.008306386
92	0xbc8464b0	-0.016161293
93	0x3d0a3980	0.033746243
94	0x3e0132cb	0.12617032
95	0xbe34c9b7	-0.17655073
96	0x3d6fbc39	0.058529112
97	0x3c1785b4	0.009248186
98	0xbc425f9f	-0.011863618
99	0x3d91a1c5	0.07110933
100	0xbd91416e	-0.07092558
101	0xbb296f5a	-0.0025853724
102	0xbd9f30dd	-0.07772992
103	0x3cca9861	0.024730863
104	0x3d9c45bb	0.076304875
105	0xbd0e06fd	-0.034674633
106	0x3b87f290	0.0041487888
107	0xbd1aa410	-0.03775412
108	0x3bc9349b	0.0061403043
109	0xbc54716c	-0.012966495
110	0xbd1bcc51	-0.03803665
111	0x3d880ac6	0.0664268
112	0xbce11133	-0.027474022
113	0x3c76a5a5	0.015054141
114	0x3d2db5b2	0.042409606
115	0x3da869d8	0.08223313
116	0x3d649ba9	0.05581251
117	0x3df00be6	0.117210194
118	0x3d552d3b	0.05204509
119	0x3d32a2c0	0.04361224
120	0x3dd57be4	0.10424021
121	0x3ba68905	0.005082252
122	0x3e0111da	0.12604466
123	0xbcfbfc48	-0.030759946
124	0xbce0bb60	-0.027433097
125	0x3c6dad74	0.0145066865
126	0x3cc49ddb	0.024001053
127	0x3bcf0216	0.0063173873
128	0xbcf67646	-0.030085694
129	0x3b8fbd4f	0.004386581
130	0x3ce7a2ca	0.028275866
131	0xbd311df4	-0.043241456
132	0xbc1cf815	-0.009580632
133	0xbcca8a44	-0.024724133
134	0x3c30cc7c	0.01079094
135	0x3dce7c36	0.10082285
136	0xbc918b48	-0.01776661
137	0xbce4aa00	-0.027913094
138	0xbc5ab181	-0.013347984
139	0x3cdf3ede	0.027251657
140	0x3dbb9d82	0.091609016
141	0xbd53a961	-0.051675204
142	0xbbbae0e4	-0.0057030786
143	0xbca481f6	-0.020081501
144	0x3d26b692	0.040701456
145	0x3db71c76	0.08940975
146	0x3c023db9	0.007949286
147	0xbcb8a265	-0.022538373
148	0x3c5b3f0c	0.013381731
149	0xbd8a1076	-0.06741421
150	0x3e403f0c	0.1877405
151	0xbd4f82a4	-0.050661698
152	0xbd180df9	-0.0371227
153	0xbc9d6112	-0.019211326
154	0x3d1e64b7	0.038670268
155	0x3dbbb234	0.09164849
156	0xbdd89445	-0.10575155
157	0xbc9423b0	-0.018083423
158	0x3e16425f	0.14673756
159	0xbe3cde4a	-0.18444172
160	0xbcfbf801	-0.030757906
161	0xbda243dc	-0.079230994
162	0xbb90e92a	-0.0044223266
163	0x3d54468d	0.051825095
164	0xbd40cbf5	-0.04706951
165	0xbb2d8240	-0.002647534
166	0xbd9713e5	-0.073768415
167	0xbd2f4eff	-0.042799946
168	0xbd08ce72	-0.033400007
169	0xbd316bd2	-0.043315716
170	0xbbef5a8c	-0.007304495
171	0xbd8630bb	-0.06552263
172	0xbd032975	-0.03202196
173	0x3bc2824f	0.005935944
174	0xbc1d0e5c	-0.009585943
175	0xbd373f83	-0.044738304
176	0x3d37e966	0.04490032
177	0xbd59821e	-0.053102605
178	0x3cf97b70	0.030454367
179	0xbd5cabae	-0.053874664
180	0xbc67de5e	-0.014152138
181	0x3d8e404d	0.06945858
182	0x3cc62d87	0.024191631
183	0xbc919aa1	-0.017773928
184	0xbcdb6bd1	-0.02678481
185	0xbc3a771f	-0.01138094
186	0xbc9f4d35	-0.019445995
187	0x3d170d2d	0.0368778
188	0x3c5e0fc3	0.013553563
189	0xbcc0c64d	-0.023532057
190	0x3dafaf5c	0.08578369
191	0xbd8ddb1b	-0.06926557
192	0xbd8f5a34	-0.06999627
193	0x3cdfdde7	0.027327491
194	0xbcaf28cc	-0.021381758
195	0xbd598520	-0.053105474
196	0xbc3971b1	-0.01131861
197	0xbd3dbe6f	-0.04632419
198	0xbc163e43	-0.009170118
199	0xbd67122f	-0.056413826
200	0x3bb2743f	0.0054459865
201	0xbd12d4b7	-0.035847392
202	0xbdbd4d46	-0.09243254
203	0xbcfa9286	-0.030587446
204	0x3db783a9	0.08960659
205	0xbc81f387	-0.015863193
206	0x3cf7d963	0.030255025
207	0x3b632725	0.0034660783
208	0x3a9c81bf	0.0011940523
209	0x3c46c08d	0.012130869
210	0xbc908810	-0.017643005
211	0x3c8c7f18	0.017150447
212	0xbbe0f964	-0.006865667
213	0x3c4faeb9	0.0126759345
214	0x3c754d64	0.014972065
215	0xbc73b449	-0.014874526
216	0x3d892b0c	0.06697664
217	0x3d31d9fd	0.04342078
218	0x3d9d00b2	0.07666148
219	0x3d70608b	0.05868582
220	0xbcb4c186	-0.022064935
221	0x3dd4ac17	0.10384386
222	0xbbdec5d9	-0.0067984876
223	0x3db9c279	0.09070296
224	0x3e1b6e7f	0.1517887
225	0xbc1b2f33	-0.009471702
226	0xbd22cd23	-0.039746415
227	0xbda67fed	-0.08129869
228	0x3d7daf5c	0.061934814
229	0xbc101b50	-0.008795574
230	0x3d0b084e	0.033943467
231	0xbc9cfca2	-0.019163433
232	0xbd3b5b9e	-0.04574167
233	0xbcedce53	-0.029029047
234	0x3c26cd30	0.010180756
235	0x3d78d2ba	0.06074784
236	0x3c023b0a	0.007948646
237	0x3cc37b3d	0.023862476
238	0x3cc3283c	0.023822896
239	0x3caa63bd	0.020799512
240	0x3cbfdc3a	0.023420442
241	0x3d5ab1aa	0.05339209
242	0x3dbcc8ad	0.09217963
243	0xbdb9571d	-0.09049819
244	0xbc1887c8	-0.0093097165
245	0x3d931d0a	0.07183273
246	0x3d154cc6	0.03645017
247	0x3d4c82f1	0.049929563
248	0xbd922f39	-0.07137913
249	0xbd94fa78	-0.072743356
250	0xbcfc3cd0	-0.030790716
251	0x3d91110c	0.070833296
252	0x3c952e3d	0.018210525
253	0x3cb2e1a6	0.021836113
254	0xbb6ec1f5	-0.0036431525
255	0xbb07c883	-0.002071888

fc5.bias f4 [120]
0	0xbc3a5023	-0.011371645
1	0xbd038ca5	-0.03211655
2	0xac4012ca	-2.729527e-12
3	0x0000db60	7.8697e-41
4	0x3d847ba6	0.064688966
5	0x3b04c954	0.0020261602
6	0xad8fc6e5	-1.6345545e-11
7	0x18c76734	5.1544503e-24
8	0x3b8dd7dc	0.004328711
9	0x3d1baf46	0.03800895
10	0x0082c425	1.2008978e-38
11	0xa6a93b9a	-1.1742886e-15
12	0xb5ef1361	-1.7812528e-06
13	0x3cc125f3	0.023577666
14	0x3a9b67f2	0.001185654
15	0x38ee6593	0.00011367644
16	0x3d484d39	0.04890177
17	0x9e39a36d	-9.827614e-21
18	0x3d73cc58	0.05952105
19	0xb32afdf0	-3.9812164e-08
20	0x3d2302d0	0.039797604
21	0x00014f0c	1.20192e-40
22	0x3cd9d93e	0.026592847
23	0xb985c410	-0.00025513815
24	0x3c9428d4	0.018085875
25	0x3d47517c	0.048661694
26	0x85baac18	-1.7554573e-35
27	0x3d9c6825	0.076370515
28	0x800247d1	-2.09434e-40
29	0xbb5f1f11	-0.0034045617
30	0xa84ba5e1	-1.1304733e-14
31	0x3d0583a4	0.032596245
32	0xae94e13c	-6.7702705e-11
33	0x3dbbed6e	0.091761455
34	0x8002475c	-2.0927e-40
35	0xb0e85f06	-1.6907229e-09
36	0xbc0bc8fb	-0.008531804
37	0xbc0ada87	-0.008474953
38	0xaede2207	-1.0101436e-10
39	0x398a5347	0.00026383458
40	0x80419f05	-6.026353e-39
41	0x39ff4fb1	0.00048696765
42	0xb0595739	-7.906809e-10
43	0x3c507aa1	0.0127245495
44	0x0cec9293	3.6449773e-31
45	0xa81c62de	-8.681178e-15
46	0x3c14788d	0.009061945
47	0x3b5bdc36	0.0033548004
48	0x3d1b42b6	0.037905417
49	0x3c3f9742	0.0116937775
50	0x311c8d20	2.2781208e-09
51	0xb3b028e0	-8.203074e-08
52	0xba434c79	-0.0007450055
53	0x3d2e22f3	0.0425138
54	0x3d38cbaa	0.045116104
55	0xad8fc358	-1.6343968e-11
56	0x39b1640b	0.0003383461
57	0xaafc2edd	-4.479671e-13
58	0x3d382cc4	0.044964567
59	0xbc3617c7	-0.011114067
60	0x3b9df419	0.0048203585
61	0x3d7342ae	0.059389763
62	0xb1892594	-3.991497e-09
63	0xb5321dc3	-6.6353476e-07
64	0xaba938b5	-1.2023912e-12
65	0xbb835b57	-0.0040086913
66	0x9f2eec14	-3.7041212e-20
67	0xbc79e608	-0.015252598
68	0x3b7b5634	0.0038350942
69	0x3c88301c	0.016624503
70	0x8006cc7d	-6.2437e-40
71	0x3b9ce9c0	0.0047886074
72	0xbaa8c640	-0.0012876466
73	0xb92df612	-0.00016590234
74	0x998784d4	-1.4012322e-23
75	0xa6ef97c8	-1.6625097e-15
76	0x3d855a8a	0.065114096
77	0x3b95446b	0.004555275
78	0xa1964989	-1.018386e-18
79	0x3c227549	0.009915658
80	0x3c14eff6	0.009090414
81	0x3d214378	0.039370984
82	0x800070a5	-4.0409e-41
83	0x80041b05	-3.77035e-40
84	0xb1ce2b24	-6.0002936e-09
85	0xbb86eccb	-0.0041175834
86	0x9089a25c	-5.4287126e-29
87	0xbcf887b1	-0.03033814
88	0x3a164fd6	0.00057339424
89	0xbcca6c04	-0.024709709
90	0xbbe0e799	-0.006863546
91	0xaeb0e57a	-8.0443166e-11
92	0xa3a8f265	-1.8317255e-17
93	0x3d7bb2e7	0.06144991
94	0x3be81edb	0.0070837564
95	0x1369074c	2.9412332e-27
96	0xba8ea416	-0.0010882642
97	0x3d6a1eae	0.057158165
98	0xbcf028b3	-0.029316282
99	0xbaf43c57	-0.0018633705
100	0x800303dc	-2.76891e-40
101	0xab06e459	-4.792326e-13
102	0xbb24614b	-0.0025082405
103	0x3bec7875	0.007216508
104	0x8561980f	-1.0607378e-35
105	0xbc0121cc	-0.007881593
106	0x3df637e1	0.12022377
107	0x11dbb3c6	3.4662902e-28
108	0x3d3bf57f	0.04588842
109	0xad9f48bb	-1.8108506e-11
110	0xbc0cf50b	-0.008603345
111	0xb064f164	-8.3288954e-10
112	0x9f7a6dc1	-5.3030346e-20
113	0xbd809ddc	-0.06280109
114	0x83734636	-7.149188e-37
115	0xbda5dfb3	-0.08099308
116	0xaa7a84bc	-2.2250512e-13
117	0x3d1f83e2	0.038944133
118	0x1c443748	6.492241e-22
119	0x062850f2	3.1656757e-35

fc6.weight f4 [84, 120]
0	0xb6090282	-2.041605e-06
1	0xb99adfb3	-0.00029539838
2	0xb7aa3ca4	-2.0293817e-05
3	0xa94a5cfa	-4.4933655e-14
4	0xb9abd183	-0.0003277176
5	0xb7451840	-1.1747761e-05
6	0x800190d2	-1.43787e-40
7	0x2808ec95	7.600817e-15
8	0xb3b12abf	-8.24998e-08
9	0xb7882c8c	-1.6233207e-05
10	0x01c82478	7.3520727e-38
11	0x00002354	1.2673e-41
12	0x8463e71e	-2.6789846e-36
13	0xb674d49e	-3.6482593e-06
14	0xb70fb03b	-8.564496e-06
15	0x3637e476	2.7402107e-06
16	0xb6ed6894	-7.075325e-06
17	0x0002736d	2.25078e-40
18	0xb279032c	-1.4494429e-08
19	0x0000da5c	7.8333e-41
20	0x2abb1945	3.3235407e-13
21	0xb2b598ca	-2.1140654e-08
22	0xb984f43b	-0.00025358968
23	0x2668b0e0	8.073088e-16
24	0x33e4eb9a	1.0659933e-07
25	0xb68f6961	-4.274e-06
26	0x2b09333d	4.8743285e-13
27	0xb51a62d4	-5.7513284e-07
28	0x0004537c	3.9729e-40
29	0xb2064b0b	-7.816889e-09
30	0x25bd2247	3.28095e-16
31	0xb47d6151	-2.3597865e-07
32	0x8003a9bc	-3.36396e-40
33	0xb520aace	-5.98532e-07
34	0x35088926	5.0863525e-07
35	0x81d3d60b	-7.7816295e-38
36	0xadd4291a	-2.4119862e-11
37	0x8002781e	-2.26761e-40
38	0x06ea0ce4	8.803996e-35
39	0x21b609f1	1.2335431e-18
40	0x800153d6	-1.2191e-40
41	0xb59479da	-1.1062323e-06
42	0x001edbc6	2.833905e-39
43	0xb4ac7ac2	-3.2126815e-07
44	0x800451e5	-3.9672e-40
45	0x00033ba9	2.96909e-40
46	0x3636a54c	2.7216329e-06
47	0xb98cc862	-0.00026852178
48	0x263c91fa	6.542344e-16
49	0xb6b5327d	-5.400098e-06
50	0x00045c1e	4.00387e-40
51	0x80002bcd	-1.5713e-41
52	0x235dff00	1.2034432e-17
53	0x3435eeec	1.6943858e-07
54	0x3116b96d	2.1933275e-09
55	0x8001e9b4	-1.75672e-40
56	0x25cf38fc	3.594739e-16
57	0x018d0624	5.180403e-38
58	0x346a1faf	2.1804475e-07
59	0xb59458db	-1.105272e-06
60	0xb764788c	-1.3617926e-05
61	0x34b1e71e	3.313698e-07
62	0x80035f7a	-3.09757e-40
63	0x0004f479	4.55042e-40
64	0x198c429e	1.4502567e-23
65	0xb1cbc6ee	-5.9306933e-09
66	0xaa3b2f8a	-1.662543e-13
67	0x0004b38d	4.31753e-40
68	0xb0169cac	-5.4792326e-10
69	0x26163000	5.2106756e-16
70	0xb50610a2	-4.9943094e-07
71	0xb6e2ecb4	-6.7628807e-06
72	0x01425352	3.5691952e-38
73	0x9713ba28	-4.7733224e-25
74	0x8000e717	-8.29e-41
75	0x808c5ee4	-1.289101e-38
76	0xb7432051	-1.163043e-05
77	0xa5ef1c2c	-4.147898e-16
78	0x175a35f4	7.0507697e-25
79	0x3679d580	3.7228165e-06
80	0xa5b8f8f7	-3.2087617e-16
81	0xb7436cbb	-1.16482215e-05
82	0xa0c61bc4	-3.3560878e-19
83	0x80025d43	-2.17127e-40
84	0x8000914c	-5.2123e-41
85	0x88467a08	-5.9726905e-34
86	0x0000c1fc	6.9588e-41
87	0x32257cab	9.63261e-09
88	0xb1ec5429	-6.878072e-09
89	0xb698f5b0	-4.558555e-06
90	0xb23aef6b	-1.0881062e-08
91	0x8022abf3	-3.18409e-39
92	0x80017700	-1.34525e-40
93	0xb389f6e1	-6.424467e-08
94	0xa6cbd7b0	-1.4144417e-15
95	0x8001a2b3	-1.50201e-40
96	0x0b93732c	5.679563e-32
97	0x34b532ee	3.3750933e-07
98	0xa5e295b7	-3.93062e-16
99	0x270393ed	1.8260093e-15
100	0x0001fce8	1.82561e-40
101	0xa4cbb147	-8.8337536e-17
102	0x344deecc	1.9178987e-07
103	0xb79397a7	-1.7594384e-05
104	0x00055c92	4.92385e-40
105	0xa5caa91c	-3.5156007e-16
106	0xb3e86480	-1.0821623e-07
107	0x0001bd1d	1.59677e-40
108	0xb4360ce4	-1.695476e-07
109	0x00036380	3.112e-40
110	0x32f3ded2	2.839025e-08
111	0x80074cd4	-6.70409e-40
112	0x001dc4bf	2.733809e-39
113	0xb4aaf8e0	-3.1846048e-07
114	0x81c6ee4e	-7.3075663e-38
115	0xb5eb0d50	-1.7512739e-06
116	0xad1a5454	-8.772611e-12
117	0x32e04842	2.6109891e-08
118	0x1154095c	1.6726735e-28
119	0x366853a4	3.461938e-06
120	0xb9844f95	-0.00025236295
121	0xb9c5b8c0	-0.00037712418
122	0x301b4130	5.648131e-10
123	0x32d81898	2.5156893e-08
124	0xb7f173a4	-2.8783288e-05
125	0xba199e3e	-0.0005860067
126	0x8003c5f0	-3.46513e-40
127	0x0001e578	1.74153e-40
128	0xb9cb255d	-0.00038747015
129	0xb98e7b02	-0.00027176
130	0x8006551f	-5.81549e-40
131	0x80040a9b	-3.71147e-40
132	0x80063b58	-5.72302e-40
133	0xb8ae36e8	-8.307194e-05
134	0x39f05616	0.00045840506
135	0x2d633aa0	1.29164734e-11
136	0xb7e70412	-2.7539241e-05
137	0x8007230c	-6.55421e-40
138	0xba6f9e09	-0.00091406755
139	0x8002c376	-2.53789e-40
140	0xba059d5d	-0.00050969963
141	0x00009deb	5.665e-41
142	0xb988fc24	-0.000261278
143	0xb87dcffc	-6.05136e-05
144	0xb81829bb	-3.627849e-05
145	0xb79ba2ef	-1.8553312e-05
146	0x02d10d51	3.0717433e-37
147	0xba65a6b9	-0.00087605004
148	0x35e2f51c	1.6909648e-06
149	0x34e3d9c4	4.244049e-07
150	0x8001d91e	-1.69722e-40
151	0xba2daa41	-0.0006624796
152	0x00192488	2.308992e-39
153	0xb98b5e19	-0.00026582254
154	0x0006e64e	6.33631e-40
155	0x2a79915e	2.2166077e-13
156	0x8dae79ce	-1.0752901e-30
157	0x2bcef496	1.4705067e-12
158	0x0022361b	3.141816e-39
159	0xb54e88d2	-7.694008e-07
160	0x389daf37	7.51898e-05
161	0x38e55393	0.00010935138
162	0x1766c0a4	7.4560155e-25
163	0xba36ced2	-0.00069735677
164	0xaf04b164	-1.2068352e-10
165	0x8070dc6c	-1.0364648e-38
166	0xb89dee35	-7.530713e-05
167	0xb5acc480	-1.2872188e-06
168	0xb9eadc4c	-0.00044796092
169	0xba147593	-0.0005663272
170	0xaf07db40	-1.2356072e-10
171	0x8003d31e	-3.51241e-40
172	0xa88ce8f0	-1.5644143e-14
173	0x38687e5c	5.543079e-05
174	0x3a74bca1	0.0009335969
175	0x319ac1b0	4.5040096e-09
176	0xb9f5a587	-0.0004685337
177	0x02d86438	3.179587e-37
178	0xb8dce487	-0.00010532984
179	0xb985f87b	-0.0002555287
180	0x39833870	0.00025028316
181	0x387e7f8b	6.0677103e-05
182	0x2eae53f8	7.92752e-11
183	0x8039521c	-5.264079e-39
184	0x00896d1d	1.2620605e-38
185	0x3a141606	0.00056490337
186	0x80034091	-2.98669e-40
187	0x358608d6	9.98635e-07
188	0xba0d466e	-0.0005389218
189	0xba4de160	-0.0007853713
190	0x000575c1	5.0142e-40
191	0xb9080671	-0.0001297237
192	0x3aaa7b96	0.0013006802
193	0x12a47cd9	1.0380632e-27
194	0x003441de	4.799074e-39
195	0x0004b2b3	4.31447e-40
196	0xb967c196	-0.00022101993
197	0xbadbbb65	-0.0016764222
198	0x800056e2	-3.1168e-41
199	0xb9234e9a	-0.00015574173
200	0xba94a5ff	-0.0011340975
201	0xb94cc37a	-0.00019527777
202	0xa99af02a	-6.8806357e-14
203	0xb008301c	-4.954488e-10
204	0x000675f9	5.93334e-40
205	0x188cc7a4	3.6390737e-24
206	0x8003424b	-2.99288e-40
207	0xb8bc9e83	-8.994064e-05
208	0xba363aba	-0.00069515
209	0xb96dda10	-0.00022683316
210	0xba169ace	-0.00057451136
211	0x008abc4e	1.274085e-38
212	0x0001e68d	1.74542e-40
213	0xb902d44c	-0.00012476853
214	0xb8fc3dcc	-0.00012027807
215	0x8001f4a0	-1.7959e-40
216	0xb60b20f0	-2.0731786e-06
217	0xb9115db7	-0.00013863189
218	0xba4c5222	-0.0007794221
219	0xb88b00b9	-6.628171e-05
220	0x8075ebe8	-1.082938e-38
221	0x8002c7bf	-2.55326e-40
222	0x166b0fdf	1.8988157e-25
223	0xb94667cf	-0.00018921423
224	0xb6a17064	-4.811258e-06
225	0x39145d71	0.0001414919
226	0xb98f438d	-0.00027325415
227	0x00013d59	1.13843e-40
228	0xba488816	-0.0007649673
229	0x00010a2b	9.5483e-41
230	0x38e12925	0.000107365
231	0x8004e9d3	-4.51222e-40
232	0x956acd4c	-4.7417874e-26
233	0x39ddd363	0.000423099
234	0x00205458	2.968993e-39
235	0x37844c64	1.5771198e-05
236	0x8000a682	-5.9732e-41
237	0xba05d02c	-0.00051045674
238	0x828c6818	-2.0630898e-37
239	0x3424722e	1.5315229e-07
240	0xbd8b04db	-0.067880355
241	0xbdb8c58f	-0.09022056
242	0xb74c6b07	-1.2184267e-05
243	0x246aeaf5	5.0939678e-17
244	0xbce06443	-0.027391559
245	0x3d3706c5	0.04468419
246	0x387510bf	5.8428148e-05
247	0xa28e49d3	-3.856734e-18
248	0x3dd31d5f	0.103083365
249	0x3e2811bf	0.1641302
250	0x99e1a7e8	-2.3332272e-23
251	0xb986528a	-0.00025619968
252	0xb680c6ad	-3.837826e-06
253	0x3dd6c696	0.10487096
254	0x3d8935c3	0.06699707
255	0xbc74c9f1	-0.014940725

fc6.bias f4 [84]
0	0xb73ac0c3	-1.1131345e-05
1	0xb9afd259	-0.00033535322
2	0x3d7cac9b	0.061688047
3	0xbb04e3b0	-0.0020277314
4	0xb7aaad96	-2.0346411e-05
5	0x3dd45cbe	0.10369252
6	0xbaaf6ed6	-0.0013384472
7	0xbc055989	-0.008139023
8	0xbbd6c0f6	-0.0065537645
9	0x3d556bde	0.052104823
10	0xbcbb5065	-0.022865484
11	0x3d0313ef	0.032001432
12	0x3db1e172	0.086855784
13	0x3ddd3bd9	0.10802431
14	0x3e00038e	0.12501356
15	0xb86c3f1e	-5.6325567e-05
16	0x3d08388e	0.03325706
17	0x3d517288	0.051134616
18	0xb97b4b6e	-0.00023965325
19	0x3db32f30	0.08749235
20	0x3d276e25	0.040876526
21	0x344feba0	1.9364097e-07
22	0x3d568988	0.052377254
23	0x3cfb6b88	0.030690923
24	0x3cbcf693	0.023066794
25	0x3ca349f9	0.019932734
26	0x18b09af5	4.56514e-24
27	0x3c3d926a	0.011570552
28	0x3c19bf66	0.009384012
29	0x3d6f1c4f	0.058376607
30	0x3d85519f	0.065097086
31	0xbb59e238	-0.003324641
32	0x3ced45da	0.028963972
33	0x3e034e54	0.12822849
34	0x3d9edb69	0.07756693
35	0xb5855b4d	-9.935844e-07
36	0xbccd0d2a	-0.025030691
37	0x3d1914f2	0.03737349
38	0x3dba1a27	0.090870194
39	0xb81913ac	-3.6496363e-05
40	0x3d8a714a	0.067598894
41	0x3d8204c4	0.06348565
42	0xba0709df	-0.0005151312
43	0x3d370b1f	0.04468834
44	0x3c9aa02d	0.018875206
45	0x3cb239b9	0.02175604
46	0x3d8308f6	0.063981935
47	0xbb2a0aa7	-0.002594629
48	0x3cd8b4ec	0.026453458
49	0x3d00db2c	0.03145902
50	0xbc169cfa	-0.0091927
51	0xbb71a2e2	-0.0036870767
52	0x3c14f8dd	0.009092537
53	0xbcee06dc	-0.029056005
54	0x3dda9bcb	0.106742464
55	0x3ca6aa90	0.020345002
56	0xbcaad44c	-0.020853184
57	0xba614a86	-0.00085941737
58	0x3d47acd1	0.048748795
59	0x3cf2e006	0.029647838
60	0x3dd0b7ff	0.101913445
61	0xb2a4a5db	-1.9167535e-08
62	0xbc1417b3	-0.009038853
63	0x3bc61e90	0.006046124
64	0x3cbc9627	0.023020817
65	0x3db491fb	0.08816906
66	0xb9b0f1ad	-0.00033749398
67	0x3e1ba2f4	0.1519888
68	0x3daad6cf	0.08341753
69	0x3cdd9ddc	0.027052812
70	0xb289867e	-1.6010059e-08
71	0x3db1103f	0.08645677
72	0xb3274d5e	-3.8953083e-08
73	0xb40dc6a2	-1.320391e-07
74	0x3cf85b1a	0.030316878
75	0xba6ec6b7	-0.00091085903
76	0xbb62558f	-0.003453586
77	0xbc97063d	-0.018435592
78	0x3daef7dd	0.0854337
79	0x3e12f69f	0.14351891
80	0x3d164f7b	0.036696892
81	0x3d5dc9bc	0.054147467
82	0x3dbb0076	0.09130947
83	0xab8b280e	-9.887661e-13

fc7.weight f4 [10, 84]
0	0x3a26e3d9	0.00063663494
1	0x396b1304	0.0002241843
2	0x3d91fb12	0.07127966
3	0x3cd4b14f	0.025963454
4	0x3856137c	5.1039722e-05
5	0xbdff952a	-0.12479623
6	0xbdfa5a94	-0.12224308
7	0xbd8952bd	-0.06705234
8	0xbad1b51d	-0.001599941
9	0x3d6aeddf	0.057355758
10	0xbe209c87	-0.1568471
11	0xbdfeb861	-0.12437511
12	0xbed2c839	-0.41168383
13	0xbe7d7421	-0.24751331
14	0xbdab2937	-0.083574705
15	0x3b0a4724	0.0021099532
16	0x3e7ae771	0.2450235
17	0x3e218cb0	0.15776324
18	0xbdb656ea	-0.08903296
19	0x3e38bbcd	0.1804039
20	0xbdb27fbc	-0.0871577
21	0xb9e73b5c	-0.0004410398
22	0x3e6f83d6	0.23390135
23	0xbcef0369	-0.02917643
24	0x3e4e3fbc	0.201415
25	0xbdba4f04	-0.09097102
26	0x35c25dad	1.448139e-06
27	0xbdf81214	-0.12112823
28	0xbd9e817d	-0.07739542
29	0x3d83b818	0.064315975
30	0xbe8bceed	-0.2730631
31	0xbbb66936	-0.0055667413
32	0xbdd0028b	-0.10156735
33	0xbe40747d	-0.18794437
34	0xbe46b148	-0.19403565
35	0xb5415ff7	-7.203775e-07
36	0x3db6cff6	0.08926384
37	0x3ea86853	0.32892093
38	0xbe55991f	-0.20859192
39	0xbaa847a8	-0.0012838738
40	0xbc1666db	-0.009179796
41	0xbe6502d3	-0.22364359
42	0xbb061425	-0.0020458784
43	0x3c56ae87	0.013103134
44	0x3e7e3d9f	0.24828194
45	0x3e825b65	0.25460353
46	0x3e2343cd	0.15943833
47	0xbdfe6f35	-0.12423555
48	0xbc3f0e74	-0.011661161
49	0x3d093f0f	0.033507403
50	0xbe177a68	-0.14792788
51	0xbc6bf2bd	-0.014401135
52	0x3e621d33	0.22081451
53	0xbc79c59e	-0.0152448695
54	0xbea7c74f	-0.32769248
55	0xbea066dc	-0.31328475
56	0xbe2c66d8	-0.16836107
57	0x3c252ac7	0.010081
58	0x3e4bfa78	0.19919765
59	0xbd9e84c1	-0.077401645
60	0xbd979858	-0.07402104
61	0xb3880d3f	-6.335403e-08
62	0xbe0fba2a	-0.1403586
63	0x3e65f1ac	0.22455472
64	0xbd922c0c	-0.071373075
65	0xbd011b99	-0.03152046
66	0xb9f41dda	-0.00046561548
67	0x3e38afa4	0.18035752
68	0x3e0a2ff4	0.13494855
69	0xbd92dde4	-0.071712285
70	0xb53eb73b	-7.104715e-07
71	0xbe8e572b	-0.2780088
72	0x38318db5	4.2332063e-05
73	0xb5972ba2	-1.1263076e-06
74	0x3db148e6	0.086564824
75	0x3d8c42f3	0.06848707
76	0x3ac269c6	0.0014832548
77	0x3e9184e1	0.2842169
78	0x3e1e4ac3	0.15458207
79	0xbe97787a	-0.29584104
80	0x3d93fab5	0.07225553
81	0xbc52eba0	-0.01287356
82	0x3e420804	0.1894837
83	0xa51fa7fd	-1.3847968e-16
84	0x30abde90	1.2505144e-09
85	0xb8337021	-4.2781354e-05
86	0xbe1237a9	-0.14279045
87	0x3eb1b096	0.34705037
88	0x35b45df5	1.343839e-06
89	0xbe1f6a79	-0.1556796
90	0xbd95244f	-0.07282316
91	0x3e1545f4	0.14577466
92	0xb9e34ed9	-0.0004335556
93	0xbe2fde0c	-0.17174548
94	0x3deeb765	0.116560735
95	0x3dc2a4f3	0.09504118
96	0x3e94e40f	0.29080245
97	0xbe6db876	-0.23214898
98	0x3d166ae5	0.036723036
99	0x3400b767	1.198765e-07
100	0x3e454ba9	0.19267143
101	0xbe848a4e	-0.25886768
102	0xbd984b46	-0.07436232
103	0x3e125d47	0.14293395
104	0xbd7f2df0	-0.06229967
105	0x36d7d786	6.4325895e-06
106	0xbe428256	-0.18995032
107	0xbdcae3e4	-0.09906748
108	0xbdafc495	-0.08582417
109	0xbd75bf02	-0.059996612
110	0x29f1dc68	1.07407843e-13
111	0x3ddfc4a5	0.10926179
112	0xbd4e760f	-0.05040556
113	0xbcdd8e5f	-0.027045427
114	0x3cfe6ab0	0.031056732
115	0x374e29dd	1.2288304e-05
116	0xbda0fa7f	-0.07860278
117	0x3e0d8fe8	0.13824427
118	0xbdc407fb	-0.09571835
119	0xb18e9418	-4.1495802e-09
120	0x3d117709	0.03551391
121	0xbe0a988d	-0.13534756
122	0xbe3acc68	-0.18242037
123	0x392c616e	0.00016439494
124	0xbd8f0fc2	-0.069854274
125	0x3e3757a5	0.17904527
126	0x38d9748d	0.000103690756
127	0xbcd0e7be	-0.025501128
128	0xbe54dbfa	-0.2078704
129	0x3e0a3fd8	0.13500917
130	0xbcf738b4	-0.030178405
131	0xbdb2d9c3	-0.08732941
132	0xbd430b1f	-0.047618028
133	0xbd86cd76	-0.06582157
134	0xbdb36845	-0.08760122
135	0xbc3c998c	-0.011511218
136	0x3e6b3207	0.22968303
137	0x3bedfce9	0.0072628153
138	0xbe137255	-0.14399083
139	0xbb8438bb	-0.004035083
140	0x3f324c0f	0.69647306
141	0x3e1efd94	0.1552642
142	0xbe445e2a	-0.19176546
143	0x3e8729e8	0.2639916
144	0xbe3085da	-0.1723856
145	0xafebba82	-4.2878773e-10
146	0xbdac891d	-0.0842459
147	0x3c341766	0.010991907
148	0xba1ba030	-0.00059366506
149	0xbdd37e03	-0.10326769
150	0xb8dc4a2f	-0.00010504235
151	0x3d140991	0.036141936
152	0xbe9054fe	-0.28189844
153	0x3df8297c	0.121172875
154	0xb3865684	-6.255598e-08
155	0x3d3c0585	0.0459037
156	0x19af19ad	1.8104946e-23
157	0xb19244f8	-4.257e-09
158	0xbd6e3156	-0.05815252
159	0xbdc990cd	-0.09842072
160	0x3b710b04	0.0036780247
161	0xbe0cffa8	-0.137694
162	0xbe8f8cd6	-0.28037137
163	0xbe221bb3	-0.15830879
164	0x3db25dc8	0.087092936
165	0xbd913250	-0.070896745
166	0xbec02d66	-0.37534636
167	0xa050d090	-1.7687293e-19
168	0x37e13b35	2.684966e-05
169	0x3a0061f3	0.0004897408
170	0x3e580b0d	0.21097966
171	0xbe1deff0	-0.1542356
172	0x3890cb7b	6.904356e-05
173	0xbd56be6d	-0.052427698
174	0xbd9589bc	-0.07301661
175	0xbcf184d5	-0.029482285
176	0x393ac9dc	0.00017813541
177	0x3ea09bd2	0.3136888
178	0x3df1f8ce	0.11815034
179	0x3e566c89	0.2093984
180	0x3e7f97b5	0.24960215
181	0x3da17cd7	0.078851394
182	0xbe0cccfc	-0.1375007
183	0xbaf25a69	-0.0018490079
184	0xbf02912b	-0.5100276
185	0x3e474d3e	0.1946306
186	0x3ba58d5d	0.005052252
187	0x3bc67d13	0.0060573905
188	0xbdfafe78	-0.12255567
189	0xb80311dd	-3.124947e-05
190	0x3d816ea3	0.063199304
191	0x3e0e5c20	0.1390233
192	0x3e14c7ad	0.14529295
193	0xbdbf2da0	-0.09334874
194	0xb3972886	-7.0388566e-08
195	0x3d3eb1af	0.04655617
196	0xbd296066	-0.0413517
197	0xbecacfa4	-0.39611542
198	0x3d96f29d	0.073704936
199	0x39f0b7c4	0.00045913283
200	0xbe43f702	-0.19137195
201	0xbeaef2e6	-0.34169692
202	0x3e569168	0.20953906
203	0x37096472	8.189223e-06
204	0xbe02b04b	-0.12762563
205	0xbde20dba	-0.110377744
206	0xbe383f48	-0.1799289
207	0xb9de8cf4	-0.00042448158
208	0xbec08fbb	-0.37609658
209	0xbe36ec25	-0.1786352
210	0xb9dc5e47	-0.00042031912
211	0xbe7f20a1	-0.2491479
212	0xbe6db2bf	-0.23212717
213	0x3d906eb9	0.07052369
214	0x3d015a06	0.031579994
215	0xbd8ff39e	-0.07028888
216	0x3dfc2483	0.123116516
217	0xbdd048ce	-0.101701364
218	0xbdbbd41f	-0.09171318
219	0xbc18ea0c	-0.009333145
220	0x3d4bd44f	0.04976302
221	0xbc8c2a12	-0.017109904
222	0x3e463b5b	0.1935858
223	0x3eb9d0a2	0.36291987
224	0xbc83126d	-0.015999997
225	0xbb92bc4a	-0.004478012
226	0xbd10149b	-0.0351759
227	0xbd521f93	-0.051299643
228	0xbe1d4517	-0.15358387
229	0xb4084f37	-1.2694805e-07
230	0xbdb3cbe2	-0.08779122
231	0x3e039fde	0.12853953
232	0xbd3e3941	-0.04644132
233	0xbe111078	-0.14166439
234	0xba9a894a	-0.0011790183
235	0x3d9540fc	0.072877854
236	0x3dfaddb3	0.12249317
237	0x3d612ce1	0.05497444
238	0x36811e14	3.848001e-06
239	0xbe0c19d9	-0.13681735
240	0xb8afe548	-8.387357e-05
241	0xb1dd33cc	-6.437835e-09
242	0x3e4373a4	0.19087082
243	0x3e40a7cb	0.18814008
244	0x3a5791ac	0.0008223306
245	0xbdcdf973	-0.10057344
246	0x3e3918a7	0.1807581
247	0xbe22c23b	-0.15894406
248	0xbeab63c7	-0.33474562
249	0xbd83096d	-0.06398282
250	0x3e99ffd9	0.3007801
251	0xaf0765d2	-1.2314352e-10
252	0xba0defd1	-0.00054144586
253	0xb8be4a44	-9.073739e-05
254	0xbec298b6	-0.38007134
255	0xbc917eed	-0.017760718

fc7.bias f4 [10]
0	0xbd6abee2	-0.057310946
1	0xbd9fd60b	-0.07804497
2	0x3cbf9e4f	0.023390917
3	0x3df77e82	0.12084676
4	0x3b8ec377	0.0043567973
5	0xbdaaf8db	-0.08348247
6	0x3e0fa8e7	0.14029275
7	0x3c8190c3	0.015816098
8	0x3c49c8fd	0.012315986
9	0xbdc5c1a0	-0.09656072
