lenet5_bn.pth (torch, 261889 bytes, 34 tensors)

fc1.weight f4 [6, 1, 5, 5]
0.07611832 0.16961169 0.08033641 -0.2272206 0.10030489 0.04517457 0.1992912 0.04882191
-0.41323826 0.17033805 -0.16073324 0.079008296 0.15673727 -0.28312984 0.028561631 -0.15098673
0.03304422 0.19610146 0.05805526 -0.17098838 -0.05109252 -0.044868827 0.06864858 0.16855104
0.080186196 -0.1678538 0.078616634 0.11849389 0.12683168 -0.06466528 0.03703721 -0.1844996
0.26046938 -0.06373441 -0.024451848 -0.020859169 0.20046116 -0.10698934 -0.38956562 -0.07581065
0.044796813 -0.09836595 -0.54637134 -0.39274123 -0.27582234 0.066928916 -0.053746767 -0.103302166
-0.17238145 0.0068230443 -0.13631769 -0.28814417 0.0064021293 0.07764612 -0.0005731312 0.16565076
-0.16232021 -0.3417783 -0.4813767 -0.2916707 -0.07158009 0.14331982 0.059390556 0.02830564
0.072979845 0.115131475 0.1270417 -0.05670451 -0.08080574 -0.07757441 0.04686638 0.20546305
0.12173639 -0.05560044 -0.08658316 0.18266466 -0.006043494 0.024882823 0.101854354 -0.26927653
-0.14075592 -0.031239416 -0.13555822 -0.0061482578 0.12929873 0.05618929 0.1255148 0.028080277
0.1461617 -0.10911326 0.12896988 0.031518504 0.26330835 0.06253164 -0.33590162 0.026670137
0.023343606 -0.055661682 -0.16850545 0.1988717 -0.07490282 0.07326193 0.2918071 -0.021778835
-0.23190731 -0.0002068799 -0.2044221 0.359317 -0.24995245 0.11905792 0.18856978 0.14009935
-0.10251883 -0.16652177 -0.1762443 -0.025969353 -0.07178547 0.060014762 -0.006739084 0.104529515
0.13782556 -0.06248554 0.23016152 -0.13336372 -0.17213805 -0.24555282 -0.2025938 -0.017845819
0.21807906 -0.056562815 0.1309794 0.16891523 0.14416972 0.19189702 -0.18493107 0.08152844
0.10409308 0.04841342 -0.00026509727 -0.27107507 -0.111447625 0.0040228562 -0.08022184 -0.140312
-0.3276957 0.0358613 0.09197465 0.16115473 -0.17775528 -0.21687752
00000000: ece3 9b3d b0ae 2d3e 6a87 a43d 84ac 68be
00000010: a66c cd3d f808 393d fe12 4c3e 7cf9 473d
00000020: f793 d3be 196d 2e3e 4197 24be 1acf a13d
00000030: bc7f 203e 65f6 90be 15fa e93c 449c 1abe
00000040: 6059 073d d2ce 483e 5acb 6d3d 9417 2fbe
00000050: 6446 51bd 60c8 37bd a097 8c3d a598 2c3e
00000060: a938 a43d dee1 2bbe c201 a13d edac f23d
00000070: 2ae0 013e 3b6f 84bd 54b4 173d 77ed 3cbe
00000080: 3e5c 853e 3087 82bd 3e4f c8bc d9e0 aabc
00000090: b145 4d3e 3a1d dbbd 2575 c7be 9d42 9bbd
000000a0: dd7c 373d 1674 c9bd fede 0bbf 6115 c9be
000000b0: 9638 8dbe 0712 893d 9225 5cbd 1690 d3bd
000000c0: c384 30be d893 df3b dd96 0bbe a287 93be
000000d0: f4c8 d13b ee04 9f3d 2f3e 16ba 5aa0 293e
000000e0: 4537 26be 91fd aebe 0277 f6be dd55 95be
000000f0: 9598 92bd 6ec2 123e 8343 733d 3be1 e73c
00000100: 7576 953d 0dca eb3d 3817 023e fd42 68bd
00000110: 7b7d a5bd 55df 9ebd f6f6 3f3d e864 523e
00000120: ee50 f93d 49bd 63bd 8352 b1bd 720c 3b3e
00000130: 8108 c6bb 10d7 cb3c 0499 d03d 9dde 89be
00000140: 5222 10be cee9 ffbc c6cf 0abe 5377 c9bb
00000150: e366 043e be26 663d f486 003e 9c08 e63c
00000160: 6aab 153e c676 dfbd ae10 043e 8c19 013d
00000170: 5ad0 863e 9710 803d 4cfb abbe 557b da3c
00000180: 173b bf3c 81fd 63bd b18c 2cbe 06a5 4b3e
00000190: a666 99bd 5a0a 963d bd67 953e 8769 b2bc
000001a0: 1c79 6dbe e6ed 58b9 0754 51be 66f8 b73e
000001b0: 89f3 7fbe a4d4 f33d 7018 413e 3476 0f3e
000001c0: 64f5 d1bd af84 2abe 6379 34be aebd d4bc
000001d0: 4304 93bd 0ad2 753d 89d3 dcbb 9213 d63d
000001e0: 2522 0d3e d6f0 7fbd 76af 6b3e 8090 08be
000001f0: f544 30be 3372 7bbe c074 4fbe 6531 92bc
00000200: 1e50 5f3e 69ae 67bd 771f 063e 1df8 2c3e
00000210: 3aa1 133e a780 443e 925e 3dbe 62f8 a63d
00000220: c12e d53d 264d 463d c1fc 8ab9 5aca 8abe
00000230: a73e e4bd 2ad2 833b 594b a4bd f3ad 0fbe
00000240: bbc7 a7be 4ce3 123d 355d bc3d bf05 253e
00000250: 7b05 36be 2415 5ebe

fc1.bias f4 [6]
0.17990325 0.10939306 -0.23151441 0.1649359 0.21123028 -0.22368188
00000000: 8f38 383e 7809 e03d 1d12 6dbe f5e4 283e
00000010: c04c 583e dd0c 65be

fc1_bn.weight f4 [6]
0.7420861 0.6275198 0.9084912 0.7465535 0.48534414 0.8910535
00000000: 5bf9 3d3f 23a5 203f e192 683f 211e 3f3f
00000010: 077f f83e 151c 643f

fc1_bn.bias f4 [6]
0.21073975 -0.31498256 -0.12202208 0.21784201 0.39579234 0.112335674
00000000: 29cc 573e 6545 a1be b6e6 f9bd fa11 5f3e
00000010: 4ba5 ca3e 3f10 e63d

fc1_bn.running_mean f4 [6]
0.07861456 0.79173976 0.119870655 0.051040847 0.18470082 -0.026788307
00000000: ac00 a13d 75af 4a3f bf7e f53d 3510 513d
00000010: 3622 3d3e 2773 dbbc

fc1_bn.running_var f4 [6]
0.122513846 1.2760348 0.5025757 0.0973057 0.14292155 0.32513577
00000000: 8ae8 fa3d 1c55 a33f cda8 003f 3648 c73d
00000010: 075a 123e 3278 a63e

fc2_bn.weight f4 [6]
0.8207529 1.1756665 1.1935834 0.8600094 0.8161176 0.99206644
00000000: dd1c 523f 3d7c 963f 57c7 983f 9329 5c3f
00000010: 15ed 503f 11f8 7d3f

fc2_bn.bias f4 [6]
0.19209638 -0.06635689 0.14871371 0.0845155 0.3407157 0.1729764
00000000: eab4 443e 1fe6 87bd 6848 183e 7616 ad3d
00000010: 4a72 ae3e ba20 313e

fc2_bn.running_mean f4 [6]
0.6535256 0.14902605 0.43252593 0.6195143 0.6275256 0.62651265
00000000: 744d 273f 499a 183e 0a74 dd3e 7d98 1e3f
00000010: 85a5 203f 2263 203f

fc2_bn.running_var f4 [6]
0.43349314 0.02412588 0.18569994 0.41793004 0.17599668 0.3127439
00000000: d0f2 dd3e a3a3 c53c 2028 3e3e edfa d53e
00000010: 7938 343e f81f a03e

fc3.weight f4 [16, 6, 5, 5]
-0.0069039213 -0.017688349 0.038620055 0.07262641 -0.1835406 0.15893696 -0.059896935 0.12542202
-0.0774954 -0.109712034 0.03996077 -0.051629905 0.15207216 -0.0036265312 0.11882544 -0.14493297
-0.11264931 -0.033217505 -0.018758984 -0.0611877 -0.059116118 0.16743165 0.1668886 0.09593329
0.1824963 0.09135998 -0.075851254 -0.07996523 -0.05712552 -0.111425884 0.058163878 -0.039529324
0.029279632 0.0051240968 0.122634016 -0.12697837 -0.038361367 0.050404616 0.18928343 0.0880004
-0.0029886737 0.1122562 -0.0034198612 0.17058516 0.023153912 0.014135556 -0.14590725 -0.020103952
0.115479484 -0.040684056 -0.078286506 -0.1686422 -0.16751851 -0.2177011 0.022978371 0.035963204
0.025855046 -0.19412242 -0.18430133 -0.12928389 0.11888913 0.17113365 -0.04237947 0.002216139
0.08135242 -0.003647004 0.08934037 -0.06508887 -0.033765204 0.05127242 0.02243328 -0.0793993
0.03306079 0.19184442 -0.011341094 -0.18637651 -0.0774077 -0.04911188 -0.17020227 0.20184167
-0.08033463 -0.1382928 -0.080329075 -0.08015076 0.018434642 0.05177288 0.10695338 0.19710405
-0.14569916 -0.07283266 0.046537757 -0.13671808 -0.031909894 -0.095694855 -0.07574382 0.29109693
-0.013846171 -0.1099536 -0.10713297 -0.1817923 0.048169207 -0.1409855 -0.07859808 -0.058882426
-0.14811052 -0.10735045 -0.007903696 0.0332195 -0.08838638 -0.12072997 -0.03242621 -0.21124811
-0.08397364 -0.053753342 0.09005015 0.032403912 0.050114915 -0.11241442 -0.06424408 0.027223594
0.15239955 0.06536254 0.05462892 -0.014445063 0.062015772 0.016574979 0.016141208 -0.019872779
-0.20195626 -0.11171075 0.012771448 -0.06614248 -0.0001393822 -0.20531172 -0.08298036 -0.09020496
0.028478052 -0.043677315 -0.05780948 -0.007983432 0.19560753 0.10995632 0.044483528 0.11761358
0.058866482 0.035017 0.0086146975 0.023752945 0.19221966 0.21886976 -0.11027198 0.063588895
-0.045107592 0.14344822 -0.036188133 -0.045076463 -0.05956942 -0.04381996 -0.0018930037 -0.07512523
0.15604359 0.028709566 0.055843104 0.047195654 0.05277123 -0.020232622 0.04145457 0.020805782
0.025603468 0.027006267 -0.06747896 -0.114012145 -0.0014961247 -0.15717492 0.22139831 -0.10184216
-0.05538851 -0.1260966 -0.104420446 0.079276 -0.22978263 -0.047265306 -0.14924115 -0.06663741
0.014684969 0.0077628815 0.07638124 -0.09285737 0.019758135 -0.07691505 0.1455345 0.09736478
0.049302977 -0.0028368307 -0.036430176 -0.086486004 -0.0881583 -0.18143922 -0.119176544 -0.20589949
0.14620464 -0.17233789 -0.3371185 -0.057282053 0.06548051 -0.25677392 -0.11535676 0.11704991
0.0333418 0.15062436 0.024961622 0.08621157 -0.28992203 -0.025084775 -0.03688752 0.022998588
0.10462554 -0.037172627 0.13881865 -0.0850351 0.26008013 0.054089148 -0.011622089 0.031319983
0.10773673 -0.04331339 -0.102071315 -0.010018079 0.12788793 -0.07831171 -0.22720012 -0.10343171
0.02890185 0.09408881 -0.21831776 -0.124249965 0.030024227 -0.039993957 -0.06265118 -0.060244933
-0.04515618 0.13312122 0.01555039 -0.05155211 -0.009161284 0.0073244926 0.025040917 -0.22239017
0.09282179 0.08868047 0.011680591 0.016638683 0.03698331 0.18503565 -0.16622919 -0.2329443
00000000: 4a3a e2bb 28e7 90bc 1030 1e3d 28bd 943d
00000010: 11f2 3bbe 5fc0 223e 7d56 75bd a16e 003e
00000020: e9b5 9ebd b4b0 e0bd e8ad 233d e179 53bd
00000030: ceb8 1b3e 19ab 6dbb c15a f33d 4f69 14be
00000040: aeb4 e6bd 140f 08bd 71ac 99bc f49f 7abd
00000050: be23 72bd 3473 2b3e d8e4 2a3e ac78 c43d
00000060: 4fe0 3a3e f11a bb3d e757 9bbd cfc4 a3bd
00000070: 73fc 69bd 4133 e4bd 3f3d 6e3d 80e9 21bd
00000080: d7db ef3c 0ae8 a73b 8b27 fb3d 9e06 02be
00000090: cf20 1dbd 1275 4e3d 84d3 413e 8e39 b43d
000000a0: a0dd 43bb 94e6 e53d c01f 60bb e0ad 2e3e
000000b0: 46ad bd3c d298 673c b668 15be 0bb1 a4bc
000000c0: 8280 ec3d 53a4 26bd ad54 a0bd 8ab0 2cbe
000000d0: f989 2bbe 0aed 5ebe 233d bc3c 274e 133d
000000e0: f6cd d33c 07c8 46be 7db9 3cbe ff62 04be
000000f0: 257c f33d a93d 2f3e 1896 2dbd a53c 113b
00000100: 199c a63d 9302 6fbb 15f8 b63d 504d 85bd
00000110: 624d 0abd 0703 523d ffc5 b73c 1a9c a2bd
00000120: c06a 073d dd72 443e ffcf 39bc 7cd9 3ebe
00000130: ee87 9ebd 8a29 49bd 8149 2ebe 95af 4e3e
00000140: 7c86 a4bd a19c 0dbe 9283 a4bd 1526 a4bd
00000150: 3f04 973c cd0f 543d 600a db3d a5d5 493e
00000160: 2932 15be 4a29 95bd 609e 3e3d d3ff 0bbe
00000170: f3b3 02bd aafb c3bd 931f 9bbd a80a 953e
00000180: 0ddb 62bc 5a2f e1bd 8868 dbbd c327 3abe
00000190: 134d 453d 815e 10be 08f8 a0bd b32e 71bd
000001a0: 49aa 17be 8dda dbbd 817e 01bc 2c11 083d
000001b0: eb03 b5bd 4641 f7bd 58d1 04bd 6d51 58be
000001c0: 5ffa abbd 772c 5cbd 376c b83d f7b9 043d
000001d0: 4c45 4d3d 8839 e6bd 6692 83bd 0404 df3c
000001e0: a10e 1c3e ccdc 853d 93c2 5f3d fcaa 6cbc
000001f0: 4004 7e3d 40c8 873c 913a 843c 3dcc a2bc
00000200: 9fcd 4ebe 9bc8 e4bd 563f 513c b575 87bd
00000210: 2027 12b9 3c3d 52be 9bf1 a9bd 61bd b8bd
00000220: ce4a e93c fce6 32bd a2c9 6cbd f1cc 02bc
00000230: 574d 483e c730 e13d 5c34 363d 63df f03d
00000240: fb1d 713d fc6d 0f3d a924 0d3c 8995 c23c
00000250: 3bd5 443e 651f 603e 47d6 e1bd e53a 823d
00000260: bdc2 38bd 17e4 123e 023a 14bd 19a2 38bd
00000270: 10ff 73bd 8f7c 33bd aa1e f8ba 42db 99bd
00000280: e4c9 1f3e 5330 eb3c bdbb 643d 3b50 413d
00000290: a526 583d e2be a5bc 44cc 293d e370 aa3c
000002a0: 5dbe d13c 3f3c dd3c 6932 8abd 337f e9bd
000002b0: 9d19 c4ba 76f2 20be 3db6 623e 9f92 d0bd
000002c0: 10df 62bd 781f 01be 63da d5bd 755b a23d
000002d0: 234c 6bbe 4499 41bd acd2 18be 3279 88bd
000002e0: 3999 703c c55f fe3b c46d 9c3d 012c bebd
000002f0: d0db a13c a385 9dbd ff06 153e 3067 c73d
00000300: ebf1 493d 1fea 39bb cf37 15bd 931f b1bd
00000310: 578c b4bd 34cb 39be d512 f4bd 51d7 52be
00000320: abb6 153e 5879 30be cc9a acbe 96a0 6abd
00000330: a51a 863d df77 83be 2a40 ecbd ddb7 ef3d
00000340: 6991 083d 463d 1a3e 517c cc3c b18f b03d
00000350: a970 94be 967e cdbc 5e17 17bd 8967 bc3c
00000360: ea45 d63d 5342 18bd 7a26 0e3e e226 aebd
00000370: 3929 853e 958c 5d3d 936a 3ebc 6249 003d
00000380: 13a5 dc3d 6269 31bd c40a d1bd de22 24bc
00000390: 0ef5 023e e461 a0bd 26a7 68be 01d4 d3bd
000003a0: 93c3 ec3c a2b1 c03d b18e 5fbe c476 febd
000003b0: 5ef5 f53c b4d0 23bd 434f 80bd 64c3 76bd
000003c0: b0f5 38bd ee50 083e 10c7 7e3c 4e28 53bd
000003d0: 3619 16bc 4c02 f03b 9c22 cd3c 40ba 63be
000003e0: 5a19 be3d 1b9e b53d f35f 3f3c d94d 883c
000003f0: d07b 173d fc79 3d3e fc37 2abe f388 6ebe

fc3.bias f4 [16]
-0.012861739 0.17597449 0.07571182 0.060596067 0.04754761 0.13820589 -0.12981251 0.086768515
-0.083359756 0.0350514 0.05490227 -0.053265005 0.047563672 -0.0007243186 -0.10772836 0.21378535
00000000: 0bba 52bc a832 343e cc0e 9b3d 9533 783d
00000010: 48c1 423d d885 0d3e 92ed 04be b1b3 b13d
00000020: 85b8 aabd 0f92 0f3d 34e1 603d 682c 5abd
00000030: 20d2 423d 33e0 3dba b0a0 dcbd 8cea 5a3e

fc3_bn.weight f4 [16]
1.0324821 0.9236626 0.9409911 0.80425864 0.89330894 0.9702858 0.89313185 1.041063
0.96268517 0.9978446 0.8859496 0.97119856 0.9052387 1.0433216 1.0649794 0.8746286
00000000: 6028 843f 2775 6c3f cbe4 703f e5e3 4d3f
00000010: e5af 643f a664 783f 4aa4 643f 8d41 853f
00000020: 8972 763f be72 7f3f 98cd 623f 78a0 783f
00000030: b9bd 673f 908b 853f 3f51 883f a9e7 5f3f

fc3_bn.bias f4 [16]
-0.06082477 0.11104697 -0.09785077 0.16411845 -0.11963094 0.04884595 0.12835933 0.07430204
0.09744277 0.04914862 -0.15339497 -0.12425961 0.11900677 0.040907897 -0.05622994 0.122387365
00000000: 6523 79bd 986c e33d fc65 c8bd ab0e 283e
00000010: 1101 f5bd b112 483d a170 033e ab2b 983d
00000020: 1390 c73d 1050 493d 9213 1dbe d37b febd
00000030: d2b9 f33d 0a8f 273d 5e51 66bd 3aa6 fa3d

fc3_bn.running_mean f4 [16]
-0.74520284 -0.65925986 -0.4147962 -0.810825 -2.1467397 -0.94622666 -1.0540744 -0.3887946
-1.1907423 -1.2243667 -0.59877735 -2.1686935 -0.6579722 -1.015217 0.13929223 -0.6689201
00000000: 9dc5 3ebf 41c5 28bf 2b60 d4be 3a92 4fbf
00000010: 2f64 09c0 e93b 72bf e9eb 86bf 1610 c7be
00000020: 3e6a 98bf 0cb8 9cbf 7949 19bf e0cb 0ac0
00000030: de70 28bf a1f2 81bf 9fa2 0e3e 593e 2bbf

fc3_bn.running_var f4 [16]
1.6535279 1.5862223 1.2718669 0.7095656 5.7016273 1.2997501 1.266665 1.1688179
1.3454702 1.3898232 1.9701031 2.6416392 0.9919296 1.3055106 0.9654779 1.4200534
00000000: cda6 d33f 5509 cb3f 89cc a23f 17a6 353f
00000010: bb73 b640 365e a63f 1422 a23f d39b 953f
00000020: 5e38 ac3f bae5 b13f 572c fc3f 9e10 2940
00000030: 19ef 7d3f f91a a73f 8f29 773f 4fc4 b53f

fc4_bn.weight f4 [16]
1.0346577 0.9282509 1.0858072 0.9121899 1.0957761 1.0225372 0.97380346 1.0652812
0.961523 1.0549806 0.9935956 1.0514832 0.87528217 1.024739 0.9807853 1.0039132
00000000: aa6f 843f daa1 6d3f bbfb 8a3f 4785 693f
00000010: 6442 8c3f 80e2 823f 2f4b 793f 225b 883f
00000020: 5f26 763f 9b09 873f 485c 7e3f 0097 863f
00000030: 7e12 603f a62a 833f bf14 7b3f 3a80 803f

fc4_bn.bias f4 [16]
-0.004552678 0.022131871 0.017396051 0.16365087 0.0061010392 0.13053508 0.14762168 0.14352712
0.07089431 0.14923413 -0.10871117 -0.039909363 -0.036081396 0.10338878 -0.08608976 0.17969158
00000000: a22e 95bb e64d b53c 2a82 8e3c 1894 273e
00000010: 3aeb c73b fdaa 053e 232a 173e c6f8 123e
00000020: 0931 913d d5d0 183e f6a3 debd 0078 23bd
00000030: 16ca 13bd 7fbd d33d d44f b0bd 1201 383e

fc4_bn.running_mean f4 [16]
0.62270755 0.755203 0.5806917 0.7511847 0.41389513 0.71839285 0.7711714 0.8453437
0.7183485 0.74031335 0.4439329 0.49932677 0.78230596 0.75962555 0.79801613 0.7362698
00000000: c369 1f3f fc54 413f 36a8 143f a44d 403f
00000010: 10ea d33e 98e8 373f 7d6b 453f 7268 583f
00000020: b0e5 373f 2d85 3d3f 2c4b e33e c2a7 ff3e
00000030: 3445 483f d276 423f c94a 4c3f 2d7c 3c3f

fc4_bn.running_var f4 [16]
0.2997589 0.34294608 0.32990572 0.3091371 0.11530172 0.36258945 0.3496644 0.724092
0.2858859 0.45254123 0.25007153 0.18486 0.4805642 0.40710828 0.81128615 0.33814564
00000000: 007a 993e a196 af3e 67e9 a83e 3847 9e3e
00000010: 4f23 ec3d 53a5 b93e 3607 b33e 185e 393f
00000020: a35f 923e 7cb3 e73e 6009 803e f14b 3d3e
00000030: 830c f63e 7f70 d03e 73b0 4f3f 6d21 ad3e

fc5.weight f4 [120, 16, 5, 5]
0.08117194 -0.0191679 0.09838492 0.029030014 -0.058042265 -0.04905474 0.10029269 0.08322046
-0.09238086 -0.19820313 -0.07913579 0.06622481 0.038201902 -0.068447694 -0.1106763 -0.16860029
-0.10864329 -0.08356886 0.06771661 0.02528816 0.075822465 -0.11598318 -0.04977211 0.07581107
0.084007196 -0.04070673 -0.17397162 0.00292837 0.06748373 -0.14459887 0.08210588 0.14859256
-0.07319179 0.013525159 0.046296574 0.030941367 0.11579313 0.0007980654 -0.063154995 -0.13856085
-0.059647065 -0.00030278912 0.12934949 -0.057224423 -0.082565874 -0.2893103 0.043461025 0.12649225
-0.038109593 -0.11814565 -0.017693246 -0.07115051 0.1157667 -0.048241597 0.1432282 0.069347285
-0.0014970319 0.029806498 0.0026630093 -0.100143515 -0.10435415 -0.0141280275 0.13292935 -0.02568225
-0.0670239 -0.07882719 0.06739267 0.018915286 0.026129939 0.028055886 -0.14081356 -0.06447148
0.0025092894 0.0075980597 -0.20764782 -0.0625182 0.08563612 0.16525379 0.09981206 0.060788687
-0.14261392 0.09138939 0.084205985 -0.042826023 0.15595002 -0.0055303117 0.035430823 0.04666237
-0.10070404 0.053856894 0.003437538 0.002123628 0.06250434 -0.039616503 0.0990717 -0.028674332
0.14025302 0.07966496 -0.05133605 0.16126466 0.05445357 0.052921444 0.11849774 0.056455802
-0.19868289 0.01888297 0.16384055 0.027110118 -0.030821672 -0.108334675 0.0999567 0.12473794
0.17056994 0.09202712 -0.1001077 -0.012221051 -0.06036858 -0.11405142 0.11342082 -0.07737653
-0.14208008 -0.055110227 0.042374287 -0.027665881 0.013580161 0.019668704 -0.018609852 0.011809067
0.0009850706 -0.021891274 0.05348186 -0.16900624 0.009035555 -0.010974558 0.08733728 0.005478239
-0.23592693 -0.0821571 0.03421601 -0.074782036 -0.17311874 0.03655305 -0.088971145 -0.08910642
0.06383314 -0.13026844 -0.14268194 -0.15163095 -0.08778672 0.05547663 -0.023976032 -0.085257694
-0.0010130391 -0.18732528 -0.14847526 0.07895501 -0.019500056 0.04900347 0.110812515 0.0031605982
0.10984598 0.064389616 -0.038785424 -0.0665252 0.0977514 0.09803687 -0.066239275 0.045665715
0.07493045 -0.04846358 0.08262906 0.06401059 0.007647881 0.08365174 0.106946625 -0.013099395
-0.13995269 -0.16943295 -0.129245 -0.017713236 -0.02545948 0.04184087 0.022974022 -0.072664045
-0.08459653 -0.09492238 0.07193567 -0.12594019 -0.110225014 -0.27648702 -0.0701494 -0.077443
-0.0053958055 -0.08017085 0.034143895 -0.12637351 -0.09956049 0.09547757 -0.08315323 -0.017194483
0.054543376 0.007850649 0.1430521 0.028158061 -0.095089845 0.0087827 0.047243297 -0.16670932
-0.070271075 0.1187237 -0.033314563 -0.08498589 -0.12453388 -0.059192285 0.19145128 -0.07753388
-0.15497388 -0.30242148 -0.044034358 0.032798972 -0.0669741 -0.022777252 -0.06221678 -0.04472639
-0.0155756185 0.08268927 0.032438483 0.0101912925 0.039793324 0.012929649 0.09605761 -0.06049142
0.001524484 0.04681874 0.047161106 0.02311816 -0.04331833 0.11718492 0.009989488 -0.016818779
-0.0134294685 -0.12831292 0.2219583 -0.19414607 -0.10795196 -0.04023233 -0.020582695 -0.14452244
-0.026351668 -0.066858016 -0.0030372604 -0.07476404 -0.028168622 -0.05553878 -0.16137472 -0.03033049
00000000: 793d a63d 0006 9dbc 087e c93d 5ad0 ed3c
00000010: babd 6dbd a0ed 48bd 4166 cd3d 7d6f aa3d
00000020: 2d32 bdbd c3f5 4abe f211 a2bd e0a0 873d
00000030: 9979 1c3d 4e2e 8cbd 42aa e2bd 8ea5 2cbe
00000040: 6080 debd 2726 abbd 02af 8a3d 1e29 cf3c
00000050: cf48 9b3d 9788 edbd d7dd 4bbd d642 9b3d
00000060: f70b ac3d 1abc 26bd 9e25 32be e5e9 3f3b
00000070: e934 8a3d ba11 14be 2127 a83d a628 183e
00000080: 94e5 95bd a198 5d3c 7aa1 3d3d c078 fd3c
00000090: f324 ed3d 4335 513a 6857 81bd e5e2 0dbe
000000a0: 7b50 74bd abbf 9eb9 3174 043e 2864 6abd
000000b0: 4c18 a9bd 7b20 94be 3004 323d 2f87 013e
000000c0: ce18 1cbd 59f6 f1bd 6df1 90bc 5cb7 91bd
000000d0: 1717 ed3d fb98 45bd 6aaa 123e f305 8e3d
000000e0: 0e38 c4ba c22c f43c e285 2e3b 0b18 cdbd
000000f0: a1b7 d5bd 3e79 67bc a21e 083e 9563 d2bc
00000100: d443 89bd 2670 a1bd 2b05 8a3d 3bf4 9a3c
00000110: 740e d63c 75d5 e53c 6e31 10be a009 84bd
00000120: e472 243b 25f9 f83b a1a1 54be 8b09 80bd
00000130: fd61 af3d 4a38 293e 446a cc3d 8ffd 783d
00000140: 6209 12be 5c2a bb3d 3074 ac3d 576a 2fbd
00000150: 5db1 1f3e 9e37 b5bb e91f 113d 0b21 3f3d
00000160: eb3d cebd 0c99 5c3d 5148 613b 912c 0b3b
00000170: 4702 803d ea44 22bd 1ae6 ca3d 6fe6 eabc
00000180: 7d9e 0f3e 6227 a33d c045 52bd 9022 253e
00000190: b50a 5f3d 28c4 583d f1ae f23d 333e 673d
000001a0: 8773 4bbe 75b0 9a3c d1c5 273e 0a16 de3c
000001b0: bb7d fcbc 92de ddbd 19b6 cc3d 9b76 ff3d
000001c0: e3a9 2e3e b778 bc3d 4405 cdbd ce3a 48bc
000001d0: 0b45 77bd ca93 e9bd 2d49 e83d 9677 9ebd
000001e0: 717d 11be 43bb 61bd a990 2d3d 8fa3 e2bc
000001f0: 537f 5e3c 4320 a13c b073 98bc d17a 413c
00000200: 7c1d 813a 5455 b3bc cb0f 5b3d f90f 2dbe
00000210: dd09 143c a2ce 33bc e3dd b23d cd82 b33b
00000220: d496 71be fb41 a8bd 1626 0c3d 5327 99bd
00000230: 0a46 31be a7b8 153d 8136 b6bd 6d7d b6bd
00000240: f3ba 823d 1765 05be 371b 12be 2545 1bbe
00000250: 86c9 b3bd 763b 633d 6269 c4bc 969b aebd
00000260: f4c7 84ba 33d2 3fbe e609 18be 2ab3 a13d
00000270: 95be 9fbc ddb7 483d acf1 e23d 0a22 4f3b
00000280: eef6 e03d b4de 833d 77dd 1ebd 5d3e 88bd
00000290: e331 c83d 8ec7 c83d 75a8 87bd f90b 3b3d
000002a0: 2375 993d bf81 46bd 6d39 a93d fc17 833d
000002b0: 139b fa3b 9a51 ab3d d506 db3d d89e 56bc
000002c0: c24f 0fbe d57f 2dbe cd58 04be 591b 91bc
000002d0: 6690 d0bc 5561 2b3d 0434 bc3c e3d0 94bd
000002e0: f240 adbd aa66 c2bd 0253 933d 77f6 00be
000002f0: a7bd e1bd b58f 8dbe 7daa 8fbd 709a 9ebd
00000300: 4ccf b0bb 9d30 a4bd 78da 0b3d 0f68 01be
00000310: 5fe6 cbbd bf89 c33d 3e4c aabd 72db 8cbc
00000320: e068 5f3d 02a0 003c 407c 123e bcab e63c
00000330: 77be c2bd 50e5 0f3c 3082 413d d9b5 2abe
00000340: 48ea 8fbd 6925 f33d da74 08bd 150d aebd
00000350: 9e0b ffbd 9c73 72bd ce0b 443e 15ca 9ebd
00000360: 79b1 1ebe fdd6 9abe 5f5d 34bd 3758 063d
00000370: b829 89bd 5c97 babc 06d7 7ebd 0533 37bd
00000380: e130 7fbc fe58 a93d 37de 043d 61f9 263c
00000390: 53fe 223d e1d6 533c dab9 c43d dac5 77bd
000003a0: 32d1 c73a 02c5 3f3d 012c 413d 4c62 bd3c
000003b0: 906e 31bd a6fe ef3d f3aa 233c 89c7 89bc
000003c0: 4607 5cbc 7664 03be 0949 633e 3ace 46be
000003d0: eb15 ddbd a8ca 24bd 0a9d a8bc b1fd 13be
000003e0: 74df d7bc dbec 88bd c60c 47bb e41d 99bd
000003f0: e2c1 e6bc a27c 63bd 6a3f 25be a677 f8bc

fc5.bias f4 [120]
-0.031057557 -0.05841602 0.0014633592 0.0072526224 -0.017805222 -0.015347232 0.040788084 -0.047860317
0.012321663 0.001163141 0.00217867 0.0071626278 -0.007832602 0.050481945 0.000117481235 0.01673185
0.04597803 0.0029109388 0.003079233 -0.028389988 -0.0180076 0.00785587 0.025208136 0.024976922
0.03780366 -0.03353301 0.034032818 -0.023599409 0.032040715 0.021816656 -0.044590745 0.009799107
-0.030837648 -0.0027840377 -0.013045957 -0.043524873 -0.04624237 -0.025466181 -0.0136964135 0.012442392
0.00032480908 0.02937106 0.009600396 0.041265536 0.022017645 0.03818845 0.033710245 -0.010136765
0.027976507 0.009618949 0.038288105 -0.042713623 -0.00969043 0.013365298 -0.05422323 -0.00014352569
0.032570794 -0.0370237 -0.036293004 0.02056239 -0.008068802 -0.0015730297 -0.01923885 -0.01160245
0.011585052 0.02693678 0.0030929672 -0.015310617 -0.0064129797 -0.02106205 -0.045782387 -0.021159109
0.028719498 -0.0015531004 0.012673727 0.02914277 -0.023711443 0.028786527 -0.03220103 -0.0542181
-0.020891353 0.017725725 0.019998588 0.0006284149 0.024251297 0.04537522 -0.014058712 0.025247624
0.0009578786 -0.035756104 0.012106622 -0.054151345 -0.017866742 0.040361494 -0.039364126 -0.02831414
-0.038093172 0.0014170094 0.0019117474 -0.023302013 -0.03414099 0.010585911 -0.031688087 -0.040383037
-0.012700943 0.016232513 0.012727448 0.010196339 0.048073266 0.010537735 -0.017049126 -0.027673021
0.012680553 -0.044851266 0.035663597 -0.010535308 -0.0017033364 -0.025172504 -0.0026456604 -0.024607494
00000000: 6b6c febc a345 6fbd 30ce bf3a 68a7 ed3b
00000010: 42dc 91bc f572 7bbc 6811 273d 2e09 44bd
00000020: cde0 493c 8974 983a 04c8 0e3b 7ab4 ea3b
00000030: 5054 00bc 28c6 4e3d 4260 f638 3c11 893c
00000040: 7553 3c3d 73c5 3e3b f5cc 493b 1f92 e8bc
00000050: ad84 93bc e8b5 003c 4b81 ce3c 679c cc3c
00000060: 03d8 1a3d e959 09bd ff65 0b3d 8c53 c1bc
00000070: 203d 033d d8b8 b23c c9a4 36bd 6f8c 203c
00000080: 3c9f fcbc 6774 36bb b6be 55bc 2347 32bd
00000090: a468 3dbd 749e d0bc ec66 60bc 2ddb 4b3c
000000a0: 234b aa39 949b f03c fb4a 1d3c 0d06 293d
000000b0: 595e b43c 7e6b 1c3d c113 0a3d ad14 26bc
000000c0: fd2e e53c cc98 1d3c fdd3 1c3d 7bf4 2ebd
000000d0: 9cc4 1ebc 1ffa 5a3c 2d19 5ebd 627f 16b9
000000e0: f468 053d 2aa6 17bd f9a7 14bd 7572 a83c
000000f0: 0233 04bc 1e2e ceba cb9a 9dbc 3418 3ebc
00000100: 3bcf 3d3c 86aa dc3c 61b3 4a3b 62d9 7abc
00000110: f923 d2bb 528a acbc 5086 3bbd de55 adbc
00000120: 2745 eb3c 6791 cbba 77a5 4f3c d2bc ee3c
00000130: 803e c2bc b9d1 eb3c 3ae5 03bd cc13 5ebd
00000140: 5824 abbc 8a35 913c 14d4 a33c 36bc 243a
00000150: a8aa c63c 5edb 393d 8356 66bc 1bd4 ce3c
00000160: 251a 7b3a fe74 12bd da5a 463c cdcd 5dbd
00000170: 465d 92bc 1852 253d 473c 21bd 0ef3 e7bc
00000180: 9607 1cbd f2ba b93a 9993 fa3a dde3 bebc
00000190: 6cd7 0bbd 8770 2d3c 5ecb 01bd af68 25bd
000001a0: 9e17 50bc 0cfa 843c c986 503c 8c0e 273c
000001b0: 79e8 443d 77a6 2c3c 9caa 8bbc 88b2 e2bc
000001c0: 18c2 4f3c f6b5 37bd fe13 123d 499c 2cbc
000001d0: 7c42 dfba 9136 cebc d162 2dbb a895 c9bc

fc5_bn.weight f4 [120]
0.81961286 1.0174831 1.0579392 1.0044293 0.9223867 0.9740283 1.0219314 0.95786977
0.87347305 1.0772502 0.9833599 1.0295165 1.0228106 0.9545835 0.8781346 1.0349934
1.0185364 1.0027674 0.9692404 1.0082095 1.065891 1.0126168 1.0360035 1.0072907
0.99791986 0.9870356 1.0548254 0.93806905 1.136178 0.9893841 1.0294462 1.0108715
1.0407003 1.0622902 1.035544 1.0400683 1.0004493 1.0357563 0.9758654 0.93963295
0.97275645 0.9120461 1.1271926 0.87581503 1.0351268 1.04219 0.9492267 1.0116278
0.9891326 0.9203903 0.9993068 0.8981459 0.9995333 0.9857132 1.0589615 0.9990832
1.0568043 1.0530262 1.0026662 0.8526022 1.0719942 0.84650826 1.0487729 1.127051
0.97782886 1.071066 0.9089105 1.0094346 0.91100967 0.9174067 1.0344548 0.9264105
0.98201424 1.1197941 1.0306497 0.92264307 1.0469604 0.9539866 1.0093914 0.9822774
0.9918043 1.0746614 1.0416172 0.93511367 1.0618792 0.9996842 1.0036057 0.99427015
0.90440553 1.0118458 0.843547 1.0843835 1.0172864 0.8887882 1.0153519 0.98093545
1.0400025 0.86746895 1.0317541 1.0530052 0.9492328 1.0503088 1.0607995 0.9983513
0.8912384 1.0270258 0.9523064 0.93350863 1.0241988 1.0618153 0.94859827 0.9159947
0.9560778 0.9558889 0.9705268 0.9834535 1.0146781 0.92524964 0.9428635 0.9708963
00000000: 26d2 513f e33c 823f 8d6a 873f 2491 803f
00000010: 8921 6c3f eb59 793f a6ce 823f f436 753f
00000020: ee9b 5f3f 56e3 893f 79bd 7b3f 32c7 833f
00000030: 75eb 823f 965f 743f 6ecd 603f aa7a 843f
00000040: 675f 823f af5a 803f 2420 783f 020d 813f
00000050: 1e6f 883f 6d9d 813f c39b 843f e7ee 803f
00000060: ad77 7f3f 5dae 7c3f 8504 873f 4b25 703f
00000070: 486e 913f 4748 7d3f e5c4 833f 3d64 813f
00000080: ab35 853f 20f9 873f b58c 843f f520 853f
00000090: b90e 803f aa93 843f 51d2 793f c98b 703f
000000a0: 9106 793f da7b 693f d947 903f 6a35 603f
000000b0: 097f 843f 7b66 853f 8500 733f 057d 813f
000000c0: cb37 7d3f b39e 6b3f 92d2 7f3f e4ec 653f
000000d0: 6ae1 7f3f b357 7c3f 0d8c 873f ebc3 7f3f
000000e0: 5d45 873f 90c9 863f 5e57 803f 2344 5a3f
000000f0: 1b37 893f c4b4 583f 313e 863f 3543 903f
00000100: fe52 7a3f b118 893f 5cae 683f 2735 813f
00000110: ee37 693f 2adb 6a3f 0469 843f 3d29 6d3f
00000120: 4965 7b3f 6a55 8f3f 54ec 833f 5632 6c3f
00000130: cc02 863f 7738 743f bd33 813f 8876 7b3f
00000140: e3e6 7d3f 818e 893f b653 853f 9c63 6f3f
00000150: a8eb 873f 4eeb 7f3f 2776 803f 7d88 7e3f
00000160: 1f87 673f 2a84 813f b2f2 573f 14cd 8a3f
00000170: 7136 823f a087 633f 0df7 813f 961e 7b3f
00000180: cd1e 853f 7212 5e3f 8510 843f e0c8 863f
00000190: ec00 733f 8570 863f 47c8 873f f393 7f3f
000001a0: 3328 643f 9575 833f 5aca 733f 6cfa 6e3f
000001b0: f218 833f 90e9 873f 56d7 723f a17e 6a3f
000001c0: 84c1 743f 23b5 743f 7274 783f 9cc3 7b3f
000001d0: f9e0 813f 29dd 6c3f 815f 713f a98c 783f

fc5_bn.bias f4 [120]
-0.13742724 -0.16580677 -0.13219914 -0.101119496 -0.15846334 -0.15145276 -0.17199773 -0.25076365
-0.17987655 -0.21771474 -0.22579372 -0.20664696 -0.042816695 -0.13743863 -0.10915867 0.027111992
-0.09989076 -0.14796633 -0.058795623 -0.021573791 -0.16774641 -0.10204139 -0.1586801 -0.1334148
0.02123084 -0.16676266 -0.13109341 -0.25477177 -0.12456996 -0.17782895 -0.15623687 -0.30833256
-0.0790416 -0.05223759 -0.19393902 -0.15891017 -0.17105445 -0.04203285 -0.08782673 -0.18738739
-0.118069686 -0.07468547 0.029306335 -0.09394352 -0.12188729 -0.07673786 -0.1611768 -0.21735619
-0.1738048 -0.13863494 -0.021964427 -0.17087367 -0.14764883 -0.20745423 -0.1393184 -0.10632931
-0.06905727 -0.026585659 -0.11044471 -0.123440646 -0.16883413 -0.18027848 0.023001753 -0.04245467
-0.13209328 -0.038750816 -0.3154426 -0.19190343 -0.119553715 -0.09162807 -0.12028987 -0.25580543
-0.18724126 -0.14597628 -0.20375566 -0.005353052 -0.191423 -0.19290173 -0.096247025 -0.12179402
-0.100422174 -0.15138659 -0.08229948 -0.08197063 -0.16162547 -0.033363204 -0.20256177 -0.22911638
-0.106610626 -0.21891288 -0.21141046 -0.20221497 -0.07864068 -0.22807884 -0.14129661 -0.09124157
-0.19049911 -0.12417499 -0.09849316 -0.23818876 -0.06688514 0.079093575 -0.20915559 -0.2036153
-0.08168966 -0.061368827 -0.14658517 -0.2955001 -0.14643884 -0.14258891 -0.118568175 -0.21611023
-0.29013634 -0.10411984 -0.17620446 -0.13765492 -0.23419406 -0.07307219 -0.15321565 -0.24092753
00000000: bab9 0cbe 40c9 29be 365f 07be bd17 cfbd
00000010: 3744 22be 6f16 1bbe 2c20 30be 1864 80be
00000020: 8f31 38be 9df0 5ebe 7836 67be 439b 53be
00000030: 8f60 2fbd b6bc 0cbe 958e dfbd f819 de3c
00000040: 8793 ccbd 7c84 17be aed3 70bd 85bb b0bc
00000050: b7c5 2bbe 14fb d0bd 097d 22be e49d 08be
00000060: 4cec ad3c d5c3 2abe 5a3d 06be 7271 82be
00000070: 891e ffbd cb18 36be 8ffc 1fbe c4dd 9dbe
00000080: 90e0 a1bd 15f7 55bd f397 46be 59b9 22be
00000090: e628 2fbe a32a 2cbd 80de b3bd 7be2 3fbe
000000a0: 85ce f1bd b2f4 98bd d713 f03c 7665 c0bd
000000b0: 0ba0 f9bd bd28 9dbd 880b 25be 9f92 5ebe
000000c0: e3f9 31be 51f6 0dbe beee b3bc 82f9 2ebe
000000d0: 4131 17be e26e 54be 7ca9 0ebe 2ec3 d9bd
000000e0: e66d 8dbd 2bca d9bc d630 e2bd 73ce fcbd
000000f0: dbe2 2cbe ec9a 38be 2c6e bc3c f3e4 2dbd
00000100: 7643 07be 2db9 1ebd b181 a1be 5582 44be
00000110: 94d8 f4bd 7fa7 bbbd 895a f6bd eef8 82be
00000120: 2cbc 3fbe ce7a 15be 53a5 50be a868 afbb
00000130: 6404 44be 0888 45be 291d c5bd 256f f9bd
00000140: 24aa cdbd 1605 1bbe a18c a8bd 38e0 a7bd
00000150: 2681 25be dba7 08bd 5a6c 4fbe 7c9d 6abe
00000160: ac56 dabd b32a 60be fc7b 58be 7111 4fbe
00000170: 5d0e a1bd 808d 69be 0fb0 10be dcdc babd
00000180: 3312 43be 754f febd c8b6 c9bd c1e7 73be
00000190: 14fb 88bd d0fb a13d e22c 56be 8780 50be
000001a0: e94c a7bd e15d 7bbd 6c1a 16be ca4b 97be
000001b0: 10f4 15be d402 12be dfd3 f2bd 004c 5dbe
000001c0: c08c 94be c83c d5bd f16e 34be 69f5 0cbe
000001d0: 91d0 6fbe dfa6 95bd 90e4 1cbe b5b5 76be

fc5_bn.running_mean f4 [120]
-1.8424989 -2.0789921 -0.81977755 -3.3788106 -1.0625851 -2.030634 -1.6882739 -1.7886741
1.4912022 -3.714468 -1.6182071 -1.8037664 1.6671693 -1.4992038 -1.8932272 1.2664572
-1.5205792 -3.0555012 -0.35671687 -1.043653 -0.75753504 -1.2486359 -1.8520949 -0.8211389
-1.5659541 -0.990587 -2.1331067 1.0496949 -0.17407024 -1.6764526 -0.7733554 1.90269
0.52615166 -2.0648923 -1.0190681 2.1097872 -2.0533428 -0.81411266 -0.16724128 -1.5530537
-0.8272163 -1.5197964 1.8043615 0.96011055 -0.37743413 0.43740478 -0.96137327 -1.1465368
0.10701173 -0.8652727 -1.4046173 -0.7867794 -3.4000478 -1.036317 -0.11809816 -1.0172601
-1.0936023 0.7457864 0.29268095 0.8481913 -2.5386844 -0.43892074 1.3954904 1.7487265
-1.8512058 -1.5142757 0.94519585 -3.6456351 1.9173357 0.56522214 -1.039063 0.83347267
-3.185085 -1.5853935 -0.2656894 -2.3632517 -1.7790767 -2.5584202 0.13631123 -0.7381463
-0.036237076 -0.6701613 -1.5531311 -2.0426173 0.23383221 -2.0249734 1.8893819 -0.41303363
0.87657094 1.2853279 -0.09321189 -1.1828068 -2.8948364 -2.0669303 0.5008603 0.32734036
-2.0959191 -3.5324109 -1.3784714 -0.64359707 -0.024702435 -0.21719918 1.2389137 -4.07864
-1.1775736 0.56849515 -0.46110237 -2.854218 -1.9437153 0.2475679 -1.2666098 -0.34584793
-1.8136204 -2.691443 -0.8613614 -4.0499783 -0.54857767 -0.8785792 1.4771774 -0.98391706
00000000: 01d7 ebbf 350e 05c0 f1dc 51bf 6f3e 58c0
00000010: ca02 88bf e8f5 01c0 5c19 d8bf 46f3 e4bf
00000020: b7df be3f d8b9 6dc0 6921 cfbf d1e1 e6bf
00000030: ce65 d53f e9e5 bfbf 4555 f2bf 451b a23f
00000040: 57a2 c2bf 558d 43c0 98a3 b6be 6c96 85bf
00000050: d1ed 41bf 4dd3 9fbf 7211 edbf 2936 52bf
00000060: 2f71 c8bf 1c97 7dbf d284 08c0 675c 863f
00000070: 783f 32be 0096 d6bf 9ffa 45bf 598b f33f
00000080: e0b1 063f 3227 04c0 d370 82bf c106 0740
00000090: f869 03c0 b069 50bf 4c41 2bbe 77ca c6bf
000000a0: 73c4 53bf b088 c2bf 51f5 e63f cec9 753f
000000b0: 0c3f c1be 85f3 df3e 8f1c 76bf b8c1 92bf
000000c0: f728 db3d 8382 5dbf 80ca b3bf 606a 49bf
000000d0: 629a 59c0 09a6 84bf 73dd f1bd 9435 82bf
000000e0: 29fb 8bbf dceb 3e3f 47da 953e 1123 593f
000000f0: ce79 22c0 38ba e0be 6e9f b23f 45d6 df3f
00000100: 50f4 ecbf c9d3 c1bf 5bf8 713f 1652 69c0
00000110: 426b f53f 66b2 103f 0400 85bf 775e 553f
00000120: 6fd8 4bc0 2dee cabf 7108 88be 843f 17c0
00000130: c9b8 e3bf 28bd 23c0 2c95 0b3e 28f7 3cbf
00000140: 546d 14bd b18f 2bbf 00cd c6bf 3eba 02c0
00000150: b671 6f3e 2a99 01c0 44d7 f13f 2579 d3be
00000160: f466 603f a085 a43f e0e5 bebd 3766 97bf
00000170: 0045 39c0 9648 04c0 6138 003f 2899 a73e
00000180: 8a23 06c0 0513 62c0 c071 b0bf c7c2 24bf
00000190: c35c cabc 7669 5ebe b994 9e3f 3884 82c0
000001a0: bbba 96bf e688 113f 9c15 ecbe 82ab 36c0
000001b0: aacb f8bf 7182 7d3e 4520 a2bf fb12 b1be
000001c0: b724 e8bf 9a40 2cc0 2e82 5cbf 6c99 81c0
000001d0: 966f 0cbf 91ea 60bf 2614 bd3f fde1 7bbf

fc5_bn.running_var f4 [120]
3.5480993 3.3357804 3.5716856 3.1643815 3.3159192 2.7957542 3.2797306 3.8375638
3.0709116 4.2271724 3.0637517 3.8258014 3.5753384 3.4620593 5.2171645 5.4784503
3.0970392 3.448293 3.1312578 5.9238973 3.2720351 3.9865656 4.1063824 4.059512
7.5396323 3.1196203 4.887524 3.1871092 3.109064 3.6734233 2.6213992 3.4659605
3.7031236 4.3630056 3.454082 2.818792 3.3764298 4.5585194 3.0908372 4.5858707
3.282969 3.0624833 3.9736032 3.8413367 2.8148794 2.7353354 3.9760756 3.3221636
4.5611567 3.0848863 4.9049406 3.873405 3.4657264 2.9345865 3.917124 3.7699142
3.467241 2.7002983 2.7712073 4.5260186 4.315203 2.031062 3.9972513 2.3173606
3.230033 6.357127 3.1449163 4.017299 3.1400886 4.542377 3.0985718 2.6174643
3.2062378 2.6431763 3.0972881 3.2878685 2.7267592 2.984105 3.7579408 2.847511
4.0894995 3.0216863 4.981659 3.6127167 3.0030472 4.3177323 5.6670337 3.5962486
5.816904 3.577343 3.5318818 3.6547835 3.3283162 3.6791599 2.6064157 3.239555
3.792198 3.739537 2.2324011 2.290533 8.774602 2.3697023 2.6963344 4.292163
3.383269 5.091082 3.289639 3.4690015 3.4942334 3.0485141 3.7429218 1.8514717
3.4860418 2.9513533 4.029458 3.0604815 2.4383783 2.705309 3.9640977 4.8821297
00000000: 0f14 6340 6d7d 5540 7f96 6440 3a85 4a40
00000010: 0538 5440 a3ed 3240 1be7 5140 a59a 7540
00000020: d189 4440 ff44 8740 8214 4440 eed9 7440
00000030: 58d2 6440 6192 5d40 03f3 a640 774f af40
00000040: e435 4640 d5b0 5c40 8766 4840 9190 bd40
00000050: 0669 5140 e423 7f40 7c67 8340 86e7 8140
00000060: ab44 f140 dca7 4740 9966 9c40 99f9 4b40
00000070: e8fa 4640 5e19 6b40 01c5 2740 4cd2 5d40
00000080: faff 6c40 be9d 8b40 ae0f 5d40 1767 3440
00000090: 6d17 5840 64df 9140 47d0 4540 74bf 9240
000000a0: 2a1c 5240 baff 4340 844f 7e40 76d8 7540
000000b0: fc26 3440 bc0f 2f40 0678 7e40 549e 5440
000000c0: fff4 9140 c76e 4540 46f5 9c40 dee5 7740
000000d0: 76ce 5d40 44d0 3b40 29b2 7a40 4646 7140
000000e0: 47e7 5d40 b0d1 2c40 765b 3140 25d5 9040
000000f0: 2516 8a40 ebfc 0140 f7d2 7f40 a34f 1440
00000100: dcb8 4e40 966d cb40 4f46 4940 b78d 8040
00000110: 36f7 4840 275b 9140 004f 4640 8984 2740
00000120: 0033 4d40 cd29 2940 f839 4640 706c 5240
00000130: 3983 2e40 94fb 3e40 1a82 7040 9f3d 3640
00000140: 2edd 8240 4f63 4140 c069 9f40 c036 6740
00000150: ed31 4040 dd2a 8a40 5758 b540 f028 6640
00000160: 1424 ba40 30f3 6440 5a0a 6240 f9e7 6940
00000170: 2203 5540 5b77 6b40 84cf 2640 de54 4f40
00000180: 5fb3 7240 9354 6f40 a9df 0e40 1898 1240
00000190: c564 0c41 34a9 1740 be90 2c40 6659 8940
000001a0: 7b87 5840 25ea a240 7289 5240 1f04 5e40
000001b0: 85a1 5f40 db1a 4340 088c 6f40 06fd ec3f
000001c0: 4f1b 5f40 f9e2 3c40 52f1 8040 eede 4340
000001d0: 640e 1c40 c823 2d40 c7b3 7d40 683a 9c40

fc6.weight f4 [84, 120]
0.07739057 -0.02233429 -0.018854022 -0.031836778 0.20162413 -0.22825149 0.080546364 0.10163724
0.122972555 -0.08321522 -0.12542844 -0.123005986 -0.07615982 0.21487173 -0.0152282845 0.0900943
-0.09457172 -0.03649183 -0.13971834 -0.07058836 0.07035604 -0.10502304 0.15015191 0.09548338
0.36847475 -0.013582383 0.017362626 0.064518176 0.09999223 0.09435503 -0.010255062 -0.020607173
0.0059507876 -0.09895802 -0.063159384 0.0983423 -0.062519014 0.07928075 -0.03111792 0.1436302
-0.018294757 -0.0023643102 -0.04986759 0.049987275 -0.095018536 -0.069349155 -0.12619448 -0.07510683
0.07989887 -0.028258141 -0.21984869 -0.072137415 -0.16925634 0.004468454 0.08286575 0.13395143
-0.03626697 0.117445245 -0.024637429 0.085865 -0.022827934 0.033615466 0.053462043 0.099897176
-0.09646092 -0.033019684 -0.19519995 -0.10743772 -0.043203317 -0.14677985 -0.058369916 -0.014717691
0.034131497 -0.012378931 -0.007038802 0.063254096 0.12089762 0.05464111 -0.10742377 0.092446454
0.07864458 -0.05740934 -0.082277834 0.09505836 0.104486965 0.09560699 0.024130568 -0.17658174
-0.024169082 -0.03145818 -0.112766095 0.02549293 0.25472182 -0.09717508 -0.06521716 0.03531028
-0.12213731 -0.042518403 -0.012486877 -0.17886329 0.2965533 0.06266178 -0.10931654 0.095551595
0.07003225 -0.073767774 0.07786808 0.010969034 -0.043538764 0.013354934 0.05379876 -0.06734942
-0.00037382552 -0.07472866 -0.26651236 0.07682985 0.09354955 -0.1495448 0.003536243 -0.008033192
-0.043829057 -0.06230673 -0.04122008 0.07717265 0.08851238 0.15804465 -0.31885657 0.12812147
-0.22348909 -0.15368028 -0.07742797 0.090524435 0.062931485 0.15943322 0.078161135 0.0467629
-0.16758184 0.019975293 0.03892128 -0.013102031 0.049040265 0.16063978 0.10961996 0.039622165
-0.0052710944 -0.096711755 0.10427595 0.0025892786 0.08070624 0.036461424 0.017831596 -0.12699045
0.22409236 0.16668424 0.010522818 0.20408039 0.012547438 -0.06980582 -0.07684828 -0.018831944
0.028530987 -0.055260815 -0.089547485 -0.11719334 -0.016209198 -0.23696363 0.045968547 -0.066765696
0.15463604 -0.031983096 -0.15395907 0.078492954 -0.03406692 -0.08086328 -0.039070677 0.12068629
0.105351 -0.087021984 0.16590151 -0.057897095 -0.10779858 -0.094975896 0.06433485 0.038588952
0.0041719857 -0.030601516 0.063876145 -0.026441127 -0.043803874 0.15680195 0.00052768615 -0.09630675
0.09118193 0.047060944 0.30131397 -0.20653225 -0.11679007 0.018077603 -0.12419805 -0.11455359
-0.062897705 0.0644329 -0.09693975 -0.035192396 0.018563658 -0.112423286 -0.046846244 -0.25037554
-0.15791622 0.010928568 -0.07869849 -0.15305115 -0.1955303 -0.06618429 -0.016830588 0.110883795
0.19052741 -0.031193197 0.21311405 0.09890265 -0.06720438 -0.077617966 0.037531056 -0.08706634
-0.032223616 -0.038007103 0.13887332 0.11572766 0.11151757 -0.058076277 0.0036693239 0.06050838
-0.068994276 0.11108331 -0.12173246 -0.028611094 -0.18826705 -0.10404379 -0.04169096 0.061244767
-0.0094127925 -0.011085997 0.044028353 0.043078564 -0.048569355 -0.1113932 0.051322315 -0.09189556
0.0988296 0.19755153 -0.06803099 -0.066158175 0.050987177 -0.025413765 0.17320742 -0.015323414
00000000: f27e 9e3d 67f6 b6bc c073 9abc 4867 02bd
00000010: 8e76 4e3e c2ba 69be 7ef5 a43d 2f27 d03d
00000020: 09d9 fb3d be6c aabd 5070 00be 90ea fbbd
00000030: aef9 9bbd 5607 5c3e 0e80 79bc 5c83 b83d
00000040: d1ae c1bd 7578 15bd 5312 0fbe a190 90bd
00000050: d416 903d 5216 d7bd 6cc1 193e ca8c c33d
00000060: b9a8 bc3e a588 5ebc 113c 8e3c 1b22 843d
00000070: bac8 cc3d 363d c13d d904 28bc 60d0 a8bc
00000080: d3fe c23b 81aa cabd b559 81bd b067 c93d
00000090: f809 80bd f25d a23d 02eb febc cc13 133e
000000a0: e3de 95bc 8bf2 1abb f541 4cbd 75bf 4c3d
000000b0: 1499 c2bd ee06 8ebd 2039 01be 9cd1 99bd
000000c0: 05a2 a33d 9e7d e7bc 0420 61be c8bc 93bd
000000d0: 8951 2dbe 1c6c 923b 85b5 a93d 902a 093e
000000e0: ad8c 14bd 2287 f03d 6fd4 c9bc fdd9 af3d
000000f0: a601 bbbc 5fb0 093d 04fb 5a3d e496 cc3d
00000100: 4e8d c5bd a63f 07bd 7fe2 47be 4f08 dcbd
00000110: f6f5 30bd 754d 16be 4b15 6fbd 7822 71bc
00000120: 78cd 0b3d 00d1 4abc c0a5 e6bb 5d8b 813d
00000130: 2c99 f73d 5bcf 5f3d fe00 dcbd 9154 bd3d
00000140: 6910 a13d 0e26 6bbd 4881 a8bd f5ad c23d
00000150: 43fd d53d 99cd c33d 78ad c53c d8d1 34be
00000160: 3dfe c5bc 4bda 00bd e9f1 e6bd 8dd6 d03c
00000170: e66a 823e ba03 c7bd 9390 85bd 83a1 103d
00000180: 2023 fabd c727 2ebd c295 4cbc f027 37be
00000190: d6d5 973e d254 803d 5ae1 dfbd 8eb0 c33d
000001a0: 116d 8f3d 8f13 97bd 4d79 9f3d 77b7 333c
000001b0: b455 32bd a7ce 5a3c 175c 5c3d 7eee 89bd
000001c0: 03fe c3b9 570b 99bd 4f74 88be f858 9d3d
000001d0: e896 bf3d 4622 19be 50c0 673b a69d 03bc
000001e0: 1986 33bd 5735 7fbd 63d6 28bd b20c 9e3d
000001f0: fb45 b53d 75d6 213e 2b41 a3be 4632 033e
00000200: 53da 64be 5d5e 1dbe 8e92 9ebd e064 b93d
00000210: 39e2 803d 7642 233e f212 a03d 748a 3f3d
00000220: 939a 2bbe 3aa3 a33c ec6b 1f3d e7a9 56bc
00000230: 72de 483d c17e 243e 6e80 e03d da4a 223d
00000240: 25b9 acbb d010 c6bd a18e d53d e3b0 293b
00000250: 5049 a53d 9358 153d 9113 923c c909 02be
00000260: 7878 653e 46af 2a3e e667 2c3c 73fa 503e
00000270: c593 4d3c 5bf6 8ebd a262 9dbd 7345 9abc
00000280: d1b9 e93c 2a59 62bd ac64 b7bd 1003 f0bd
00000290: 27c9 84bc 98a6 72be 8449 3c3d 74bc 88bd
000002a0: e958 1e3e b500 03bd 72a7 1dbe eac0 a03d
000002b0: c189 0bbd a69b a5bd 9308 20bd 602a f73d
000002c0: 44c2 d73d 9538 b2bd 16e2 293e 8125 6dbd
000002d0: 80c5 dcbd b982 c2bd fdc1 833d 730f 1e3d
000002e0: 27b5 883b 08b0 fabc 7fd1 823d 109b d8bc
000002f0: b16b 33bd b190 203e 6b54 0a3a 793c c5bd
00000300: 97bd ba3d fac2 403d d345 9a3e 317d 53be
00000310: a22f efbd 7b17 943c 8c5b febd 139b eabd
00000320: 83d0 80bd 65f5 833d 5988 c6bd e725 10bd
00000330: d012 983c 2e3e e6bd d9e1 3fbd 3931 80be
00000340: cab4 21be bd0d 333c ad2c a1bd 71b9 1cbe
00000350: 1839 48be a18b 87bd 4de0 89bc 0b17 e33d
00000360: 9e19 433e e088 ffbc 923a 5a3e 798d ca3d
00000370: 73a2 89bd 2bf6 9ebd 2aba 193d d64f b2bd
00000380: e9fc 03bd 56ad 1bbd cf34 0e3e a002 ed3d
00000390: 5363 e43d 64e1 6dbd 0a79 703b a3d7 773d
000003a0: df4c 8dbd a57f e33d de4e f9bd d061 eabc
000003b0: 14c9 40be e914 d5bd 24c4 2abd cbdb 7a3d
000003c0: 1d38 1abc 0ba2 35bc 1357 343d 2673 303d
000003d0: a9f0 46bd 1e22 e4bd 5937 523d bd33 bcbd
000003e0: 2c67 ca3d f34a 4a3e d553 8bbd f07d 87bd
000003f0: eed7 503d 8730 d0bc 495d 313e 0e0f 7bbc

fc6.bias f4 [84]
0.009001337 0.051498972 0.07589469 -0.06784657 -0.057451688 0.07216461 -0.0055154148 -0.037830558
0.02784594 -0.0087877195 -0.032002922 -0.088346906 -0.049890313 0.030049596 0.040407654 0.08065558
-0.048876774 -0.0057223546 0.0774889 -0.06436244 0.065632276 -0.020258982 -0.0037723347 -0.08286756
0.00022813886 -0.07180288 0.06559226 -0.08928196 0.052511577 0.0753502 -0.06851351 0.025252648
-0.03901099 0.055511545 0.013933393 0.03540236 0.0037116257 0.034962244 0.05218367 0.08725943
0.050597478 0.025871215 -0.053859904 0.017623547 -0.03583095 -0.014100375 0.016159046 -0.0442351
0.08425963 -0.08601294 -0.046358224 0.03454739 0.019331995 0.06368233 -0.0089057665 0.026969273
0.0054562786 -0.02198497 -0.013486228 -0.0078024 0.03599643 0.06498995 0.054853525 -0.02997105
0.02173383 -0.002404539 -0.06712744 -0.017377598 -0.05074572 -0.039365917 -0.048446674 0.030923666
-0.00148107 -0.038191084 -0.08778697 -0.029862793 0.041529827 -0.035637036 -0.083101034 -0.04186014
0.05283711 0.069343865 0.04408335 0.077383
00000000: 587a 133c 96f0 523d ad6e 9b3d 24f3 8abd
00000010: 7652 6bbd 0acb 933d a7ba b4bb 37f4 1abd
00000020: 2b1d e43c 5efa 0fbc 7f15 03bd 39ef b4bd
00000030: c959 4cbd 922a f63c 7f82 253d c12e a53d
00000040: 0333 48bd 9782 bbbb 80b2 9e3d 74d0 83bd
00000050: 376a 863d 2af6 a5bc 4639 77bb 78b6 a9bd
00000060: 8f38 6f39 630d 93bd 3c55 863d 76d9 b6bd
00000070: 6116 573d 3551 9a3d d050 8cbd a4de ce3c
00000080: fdc9 1fbd 1360 633d e348 643c 1102 113d
00000090: bf3e 733b 9234 0f3d 8bbe 553d 12b5 b23d
000000a0: 4d3f 4f3d dfef d33c 349c 5cbd 425f 903c
000000b0: 79c3 12bd 4205 67bc fa5f 843c dd2f 35bd
000000c0: 5090 ac3d 8d27 b0bd 1fe2 3dbd 9081 0d3d
000000d0: 225e 9e3c e26b 823d 7ee9 11bc aaee dc3c
000000e0: 95ca b23b d319 b4bc 57f5 5cbc 46ab ffbb
000000f0: fe70 133d 7319 853d 17ae 603d d985 f5bc
00000100: 250b b23c 7895 1dbb 1c7a 89bd 775b 8ebc
00000110: beda 4fbd 283e 21bd 0570 46bd a153 fd3c
00000120: 7620 c2ba 416e 1cbd a8c9 b3bd d1a2 f4bc
00000130: 2e1b 2a3d 24f8 11bd e030 aabd 8a75 2bbd
00000140: ba6b 583d 2804 8e3d be90 343d fa7a 9e3d

fc6_bn.weight f4 [84]
1.9564459 1.2858915 1.3969787 1.2623069 1.3455963 1.6655731 1.544982 1.2860949
1.3875452 1.6746343 1.5225801 1.3816197 1.4494618 1.2906687 1.7687006 1.5420305
1.3344868 1.4055502 1.2166255 1.4562104 1.4872625 1.6971205 1.3504434 1.1550368
1.540336 1.4620978 1.2787519 1.4291631 1.5808738 1.4075229 1.2507535 1.2691394
1.3946068 1.4683896 1.3150997 1.3682079 1.4442663 1.5453362 1.4120553 1.3649721
1.4250624 1.3131086 1.2824172 1.4110521 1.3666943 1.3601034 1.3270992 1.4755929
1.3010625 1.2891257 1.1978526 1.4157165 1.2558384 1.2520542 1.299913 1.3653108
1.3560661 1.3657326 1.4491231 1.4192111 1.2617239 1.5956882 1.279337 1.3470081
1.3486841 1.3395483 1.3073605 1.2954125 1.4814472 1.2432287 1.2667599 1.4733752
1.387394 1.7578607 1.627522 1.4347935 1.2908099 1.2933995 1.3610868 1.512348
1.3631015 1.5146066 1.428335 1.3651278
00000000: d26c fa3f 1898 a43f 33d0 b23f 4693 a13f
00000010: 803c ac3f 8031 d53f f8c1 c53f c29e a43f
00000020: 159b b13f 6b5a d63f e8e3 c23f ead8 b03f
00000030: f787 b93f a234 a53f c864 e23f 4161 c53f
00000040: 77d0 aa3f 12e9 b33f 62ba 9b3f 1a65 ba3f
00000050: 9e5e be3f 3f3b d93f 54db ac3f 3fd8 933f
00000060: bb29 c53f 0526 bb3f 24ae a33f d1ee b63f
00000070: 135a ca3f b629 b43f b118 a03f 2973 a23f
00000080: 7a82 b23f 31f4 bb3f 3055 a83f 7021 af3f
00000090: b8dd b83f 94cd c53f 3abe b43f 68b7 ae3f
000000a0: 7268 b63f f113 a83f 3f26 a43f 5b9d b43f
000000b0: d7ef ae3f de17 ae3f 63de a93f 3ae0 bc3f
000000c0: 3789 a63f 1202 a53f 3c53 993f 3336 b53f
000000d0: 50bf a03f 5043 a03f 8d63 a63f 81c2 ae3f
000000e0: 9393 ad3f 53d0 ae3f de7c b93f b6a8 b53f
000000f0: 2b80 a13f 833f cc3f 51c1 a33f c36a ac3f
00000100: aea1 ac3f 5276 ab3f 9757 a73f 14d0 a53f
00000110: 10a0 bd3f 1e22 9f3f 3025 a23f 8f97 bc3f
00000120: 2096 b13f 9401 e13f a452 d03f 50a7 b73f
00000130: 4239 a53f 1d8e a53f 1838 ae3f 9f94 c13f
00000140: 1c7a ae3f a1de c13f aed3 b63f 82bc ae3f

fc6_bn.bias f4 [84]
0.37119028 0.19659267 0.27151984 0.1632774 0.14879575 0.27919516 0.20890653 0.18162882
0.26071632 0.3117419 0.21013777 0.24541785 0.26250502 0.14838444 0.4100793 0.3019587
0.17541465 0.14830495 0.16708076 0.20067793 0.20572028 0.17427619 0.21451989 0.19697444
0.31305206 0.14967817 0.236977 0.15331258 0.3376462 0.17720068 0.20713079 0.22658324
0.23849683 0.14896396 0.2119276 0.1644478 0.23792407 0.29072392 0.080348015 0.22010915
0.15774404 0.18772598 -0.001694452 0.17613752 0.21575452 0.18434697 0.16460201 0.2682139
0.085553065 0.21407074 0.08341685 0.24382445 0.14111306 0.2025711 0.20537098 0.29158318
0.1681794 0.17275926 0.18680686 0.17842296 0.15216617 0.26950496 0.14186183 0.08382209
0.19085555 0.2266733 0.2014753 0.21455859 0.17959227 0.16081098 0.30244502 0.29377556
0.17063394 0.4303913 0.37686864 0.19141008 0.22678925 0.14498535 0.15784597 0.18509057
0.21949536 0.21673454 0.33746547 0.2918464
00000000: a70c be3e 974f 493e a604 8b3e 3132 273e
00000010: ea5d 183e abf2 8e3e 98eb 553e e8fc 393e
00000020: 9c7c 853e a29c 9f3e 5b2e 573e d14e 7b3e
00000030: 0f67 863e 17f2 173e eaf5 d13e 559a 9a3e
00000040: e69f 333e 41dd 173e 3817 2b3e 847e 4d3e
00000050: 56a8 523e 7575 323e 1aab 5b3e abb3 493e
00000060: 5c48 a03e 3c45 193e 19aa 723e f9fd 1c3e
00000070: f6df ac3e 1874 353e 181a 543e 7005 683e
00000080: 8338 743e 028a 183e 8c03 593e 0165 283e
00000090: 5ea2 733e c4d9 943e 808d a43d 4b64 613e
000000a0: a787 213e 3d3b 403e 6018 deba 655d 343e
000000b0: c1ee 5c3e 74c5 3c3e 6e8d 283e 5553 893e
000000c0: 7236 af3d 5c35 5b3e 74d6 aa3d 1ead 793e
000000d0: f17f 103e cc6e 4f3e c54c 523e 644a 953e
000000e0: 3837 2c3e cee7 303e 4c4a 3f3e 82b4 363e
000000f0: 73d1 1b3e 8efc 893e 3a44 113e eaaa ab3d
00000100: a36f 433e 0c1d 683e 8b4f 4e3e 3fb5 5b3e
00000110: 09e7 373e a2ab 243e 13da 9a3e c069 963e
00000120: aaba 2e3e 405c dc3e edf4 c03e 0101 443e
00000130: 713b 683e 0a77 143e 60a2 213e 6288 3d3e
00000140: 64c3 603e a9ef 5d3e 46c8 ac3e e46c 953e

fc6_bn.running_mean f4 [84]
-0.0018209196 -0.19967079 -0.5946153 -0.19879751 0.5643427 0.42039204 -0.86193156 -0.5365788
-0.64027953 0.36703324 -0.17312102 -0.24415705 -0.5445102 -0.58587503 -0.21970224 0.15380831
0.40918955 -0.42556506 -0.1183236 -0.016994318 -0.120738775 -0.056898706 -0.16420951 -0.5843258
-0.8335027 0.12115443 -0.946996 0.076306134 -0.4529417 0.048524313 -0.20896332 -0.20453613
-0.17385536 0.23299044 -1.1904335 -0.7166855 -0.55276597 -0.31476027 -0.070902854 -0.16787781
0.08669564 0.043082856 -0.13018665 0.1772778 -0.71724707 -0.93725234 -0.1320556 -0.62465775
0.3791961 -0.54065007 -0.1267741 0.44224077 -0.010250027 -0.70407104 -0.0065453695 -0.21304467
-0.84539396 0.093164705 -0.100534335 -0.64433545 -0.4069709 0.058596324 0.23024349 0.23727284
0.19076028 0.08836456 -0.34959745 -0.44858715 -0.65831643 -0.093524314 -0.5121753 0.44192222
-0.35197884 -0.1586969 -0.5521728 -0.9361597 -0.5631437 -0.18600705 0.1391641 0.061238054
0.063894466 -0.03667124 -1.1179744 0.2709039
00000000: ecab eeba 8076 4cbe b538 18bf 9391 4bbe
00000010: c378 103f a03d d73e 8ca7 5cbf 3a5d 09bf
00000020: 5ce9 23bf c8eb bb3e a346 31be 4e04 7abe
00000030: 0565 0bbf e8fb 15bf a0f9 60be ed7f 1d3e
00000040: 4b81 d13e aae3 d9be a553 f2bd ab37 8bbc
00000050: e445 f7bd 9e0e 69bd 8a26 28be 6096 15bf
00000060: 6f60 55bf d01f f83d 546e 72bf 6446 9c3d
00000070: f9e7 e7be 6ec1 463d 7bfa 55be eb71 51be
00000080: 2407 32be 0c95 6e3e 2060 98bf b378 37bf
00000090: 1282 0dbf 4228 a1be 8435 91bd 29e8 2bbe
000000a0: 7c8d b13d a677 303d a64f 05be 5088 353e
000000b0: 819d 37bf c5ef 6fbf 9539 07be 92e9 1fbf
000000c0: fe25 c23e 0b68 0abf 12d1 01be 626d e23e
000000d0: bbef 27bc 003e 34bf 8a7a d6bb 6228 5abe
000000e0: bd6b 58bf 23cd be3d f2e4 cdbd 2bf3 24bf
000000f0: 7d5e d0be b302 703d f3c4 6b3e a7f7 723e
00000100: aa56 433e 7af8 b43d 70fe b2be 37ad e5be
00000110: 6d87 28bf ad89 bfbd ec1d 03bf a143 e23e
00000120: 9236 b4be 7181 22be 325b 0dbf 29a8 6fbf
00000130: 2f2a 10bf a278 3ebe 0981 0e3e c1d4 7a3d
00000140: 1adb 823d 9534 16bd c919 8fbf eab3 8a3e
