lenet5_dropout.pth (torch, 250075 bytes, 10 tensors)

fc1.weight f4 [6, 1, 5, 5]
-0.19453824 0.07570896 0.12390219 0.2341823 -0.12362366 0.02580212 -0.00019744951 0.18229488
0.11525523 0.11225738 0.07996028 0.09191685 0.10173884 0.007344055 0.07845034 0.09079827
0.15596235 0.060504463 -0.08811149 -0.1585743 0.05894798 -0.049008034 -0.17595005 -0.20652023
-0.1746855 -0.019358743 0.00011563243 0.009600568 -0.13268778 -0.017095923 0.30352485 -0.12215861
-0.26038918 -0.21716523 -0.0949748 0.25014514 -0.04386688 -0.14310879 -0.07317996 0.08569616
0.0013559795 0.11609835 0.0039412854 -0.027486531 0.016358728 -0.049621146 0.046550017 0.05332339
0.08687758 0.1364252 0.03838896 0.09813478 0.13798682 -0.06284681 -0.10564038 -0.16626461
-0.24399763 -0.14510334 -0.09118238 0.24781454 -0.16593648 -0.36428848 -0.50706387 -0.20175272
0.057531733 0.112193815 0.019573983 -0.042745173 0.024045585 0.06981034 0.1402122 -0.0075965486
-0.0011593023 0.09471255 -0.051516026 0.05772491 -0.012049763 0.053757627 0.022449033 -0.044948377
0.03987742 0.122624174 0.1308592 -0.08473679 -0.2624165 -0.08901253 0.18320587 -0.20152612
-0.14147936 -0.5785091 -0.046777748 -0.08150449 0.08750663 -0.047773153 -0.00045890713 0.14850137
0.050461873 -0.017425532 -0.032356728 -0.056561753 0.074634075 -0.23572816 0.24865763 -0.03484883
-0.010359661 0.008306388 -0.4086192 0.33727184 0.07595448 -0.030564064 0.09309882 -0.47909132
0.050785184 0.30772328 0.019408183 0.1418887 -0.27965903 -0.15359308 0.22649848 0.05843686
0.13080844 -0.34395579 0.17678766 0.029776573 -0.0023648913 0.011399022 0.03085841 0.08183778
0.013058051 0.010497089 0.11944334 0.0021200788 -0.0028981748 -0.107272744 -0.11641993 0.07807981
-0.16014679 -0.34022406 -0.49817276 -0.32103068 0.04221645 0.022474192 0.015466811 -0.14952819
-0.12568986 -0.063317046 0.06253456 0.0001913014 -0.0205589 0.078307785
00000000: 0835 47be 4d0d 9b3d 6ec0 fd3d 7ccd 6f3e
00000010: 672e fdbd f85e d33c 730a 4fb9 82ab 3a3e
00000020: ef0a ec3d 32e7 e53d 37c2 a33d e73e bc3d
00000030: 745c d03d 66a6 f03b 92aa a03d 72f4 b93d
00000040: 98b4 1f3e 87d3 773d cc73 b4bd 4d61 22be
00000050: 7073 713d a6bc 48bd 402c 34be 0a7a 53be
00000060: c1e0 32be 3a96 9ebc b07f f238 b34b 1d3c
00000070: 4edf 07be c00c 8cbc 9c67 9b3e 4b2e fabd
00000080: bb51 85be 9060 5ebe 2682 c2bd 0613 803e
00000090: c2ad 33bd 1c8b 12be 60df 95bd 7881 af3d
000000a0: 1fbb b13a f9c4 ed3d e625 813b 6f2b e1bc
000000b0: bd02 863c 8b3f 4bbd 3bab 3e3d a169 5a3d
000000c0: dfec b13d 0cb3 0b3e be3d 1d3d e3fa c83d
000000d0: 6b4c 0d3e d4b5 80bd fc59 d8bd 4541 2abe
000000e0: 84da 79be f895 14be d4bd babd 18c3 7d3e
000000f0: 41eb 29be 0584 babe f0ce 01bf 4498 4ebe
00000100: 65a6 6b3d dfc5 e53d 9e59 a03c 9015 2fbd
00000110: 3ffb c43c b9f8 8e3d c993 0f3e 78ec f8bb
00000120: bbf3 97ba a7f8 c13d 7802 53bd f570 6c3d
00000130: 5f6c 45bc f530 5c3d 09e7 b73c ca1b 38bd
00000140: 8156 233d 6222 fb3d f4ff 053e 7b8a adbd
00000150: 755b 86be 344c b6bd 529a 3b3e dd5c 4ebe
00000160: f7df 10be 2c19 14bf 069a 3fbd d3eb a6bd
00000170: ad36 b33d c8ad 43bd 7999 f0b9 be10 183e
00000180: 1cb1 4e3d fdbf 8ebc 7d88 04bd 4cad 67bd
00000190: c0d9 983d b962 71be 1ba0 7e3e a6bd 0ebd
000001a0: 91bb 29bc 8417 083c 8936 d1be e5ae ac3e
000001b0: 068e 9b3d 7d61 fabc 98aa be3d 754b f5be
000001c0: 2004 503d e88d 9d3e e9fd 9e3c 454b 113e
000001d0: 782f 8fbe 8147 1dbe 38ef 673e 7d5b 6f3d
000001e0: a6f2 053e f91a b0be d307 353e 00ee f33c
000001f0: 4bfc 1abb f7c2 3a3c c7ca fc3c 919a a73d
00000200: 6ff1 553c fbfb 2b3c b69e f43d 05f1 0a3b
00000210: 4eef 3dbb d0b1 dbbd 926d eebd 4fe8 9f3d
00000220: 85fd 23be d931 aebe 8010 ffbe 225e a4be
00000230: 28eb 2c3d cc1b b83c 8268 7d3c eb1d 19be
00000240: d8b4 00be 5eac 81bd 1f12 803d 1498 4839
00000250: 236b a8bc d55f a03d

fc1.bias f4 [6]
-0.17213175 -0.10302334 -1.0476668 -0.6830981 -0.04253061 -1.2287238
00000000: 4e43 30be e7fd d2bd f219 86bf 84df 2ebf
00000010: 9434 2ebd d246 9dbf

fc3.weight f4 [16, 6, 5, 5]
-0.112401694 -0.14616697 -0.061041977 -0.12074817 -0.19270156 -0.09546012 0.0002975905 0.056831047
-0.21378674 -0.30036354 -0.04431548 0.06332354 0.010158547 -0.05039296 -0.13953319 -0.03408476
0.09795159 0.09534039 0.009405274 -0.052451316 -0.0736379 0.052078057 0.084811084 0.075606026
-0.14667031 -0.117961034 -0.2678203 0.05262664 0.18598175 0.09188288 -0.11960442 -0.39680314
0.08278905 0.20350984 0.14507616 0.08693584 -0.15772472 0.05145148 0.029461421 -0.034876294
0.020302447 -0.17548983 -0.2262451 -0.004013787 -0.038296945 0.07060101 -0.1456237 -0.063845985
-0.018667908 -0.065369174 0.25963897 -0.28965297 -0.5368135 -0.02302465 0.38266706 0.057299845
-0.042198464 -0.53389245 -0.03163349 0.12613714 -0.008062985 0.059065532 -0.20307349 -0.034741994
-0.22622585 0.018661171 0.21733247 -0.13244791 0.073711954 -0.051068522 -0.08690727 0.051168006
-0.081065826 0.20792416 0.088009074 -0.10348358 -0.6130421 0.14483376 0.17298977 0.1586686
0.023696028 -0.334839 0.10574245 0.048567455 -0.10840073 -0.08239741 -0.111488424 -0.0064203446
0.05499944 -0.30915767 -0.014473437 0.024653055 -0.0062094857 -0.010795243 -0.1148985 8.812225e-05
0.23439434 0.17638318 0.029352035 -0.2031081 0.07299544 0.045127716 -0.0566314 0.045760587
0.15024327 -0.0068471353 0.05666424 -0.029705223 0.047321796 0.15488908 0.03193707 0.027047258
-0.0263384 -0.112275824 -0.03800862 0.014719938 0.0105010355 -0.043295633 -0.1857031 0.045756657
0.0411807 0.012252244 -0.0802035 -0.22256333 0.06261734 0.101267494 -0.52215093 -0.12284514
0.36664012 0.27103826 -0.03270292 -0.6650646 -0.14524864 0.06358669 -0.028701803 0.017114315
-0.24125783 -0.20527038 -0.05387722 -0.14369866 0.053588256 0.18538739 0.13620909 0.1314142
-0.0009904562 0.05659812 0.17865397 0.16078056 0.103113905 -0.050901037 -0.08566375 0.022263374
-0.08262411 -0.3963104 -0.2992796 0.1272552 0.014854117 -0.14530876 -0.1238671 -0.007735881
0.059454236 -0.115574144 0.030113079 -0.021659303 -0.11104733 -0.15170765 -0.2173136 0.031001111
-0.054199003 -0.07064826 -0.27792355 -0.14125513 -0.0862545 -0.025995184 0.027854508 -0.027000684
0.2328197 0.0917928 0.115792 -0.28412175 0.1730401 0.12014173 -0.0514493 0.042350855
-0.04359888 0.105472684 0.13493891 -0.043522 0.09790571 -0.0017961625 0.01017545 0.17123781
0.07155178 0.0010058829 -0.012366571 0.04136038 0.047618635 0.2606113 0.16668938 -0.022686902
-0.18087083 -0.06608758 0.20451188 0.40817103 -0.09068437 1.5977364e-05 -0.03695439 -0.10877011
0.24331056 0.23693216 0.01696664 -0.17037462 0.04895703 0.079950616 0.061310902 -0.07449249
-0.41783515 -0.054053754 0.03078417 -0.027517207 0.004275268 -0.44780067 -0.06441364 0.10901917
-0.08110661 -0.1609149 0.20607506 0.20797892 0.04001349 -0.026706323 -0.035018094 0.12079901
0.03518884 0.06861816 0.0622951 0.013739016 0.1619961 -0.018085111 -0.09190601 -0.06613559
-0.12335169 0.0040159104 -0.08212815 -0.20007631 -0.12000746 -0.26203015 0.012339887 -0.024978573
-0.21209495 0.00020037298 0.03389928 -0.0041071814 -0.10666106 0.041830294 0.048346605 0.066214636
00000000: dc32 e6bd cbac 15be 2707 7abd d14a f7bd
00000010: 8f53 45be 9880 c3bd ec05 9c39 acc7 683d
00000020: e9ea 5abe 40c9 99be 2684 35bd c6af 813d
00000030: 0970 263c d968 4ebd cae1 0ebe 769c 0bbd
00000040: d89a c83d d341 c33d 9418 1a3c 31d7 56bd
00000050: 78cf 96bd cd4f 553d 6fb1 ad3d 55d7 9a3d
00000060: be30 16be 8e95 f1bd be1f 89be 088f 573d
00000070: 0072 3e3e 172d bc3d 2af3 f4bd c829 cbbe
00000080: 4e8d a93d e264 503e d88e 143e 6b0b b23d
00000090: 9782 21be c9be 523d 1459 f13c 72da 0ebd
000000a0: 5151 a63c 9bb3 33be ccac 67be 1686 83bb
000000b0: 42dd 1cbd 4397 903d 611e 15be afc1 82bd
000000c0: 71ed 98bc 46e0 85bd 66ef 843e 654d 94be
000000d0: 9c6c 09bf 319e bcbc f0ec c33e 3eb3 6a3d
000000e0: 4cd8 2cbd 2dad 08bf 1e92 01bd 182a 013e
000000f0: 9c1a 04bc b3ee 713d 7ff2 4fbe 9f4d 0ebd
00000100: c0a7 67be 50df 983c 678c 5e3e 6da0 07be
00000110: 4bf6 963d 3a2d 51bd 70fc b1bd 8b95 513d
00000120: d705 a6bd 12ea 543e 1a3e b43d 33ef d3bd
00000130: 54f0 1cbf 4d4f 143e 3b24 313e 057a 223e
00000140: 2c1e c23c 0470 abbe 7f8f d83d abee 463d
00000150: 3401 debd f9bf a8bd 0b54 e4bd c161 d2bb
00000160: 1847 613d ea49 9ebe ff21 6dbc 34f5 c93c
00000170: f178 cbbb 88de 30bc e84f ebbd 46ce b838
00000180: 1205 703e cb9d 343e ae73 f03c 92fb 4fbe
00000190: a27e 953d d7d7 383d 54f6 67bd 746f 3b3d
000001a0: 5fd9 193e ef5d e0bb c318 683d 5e58 f3bc
000001b0: 80d4 413d 3e9b 1e3e 72d0 023d 3692 dd3c
000001c0: a1c3 d7bc def0 e5bd edae 1bbd e52b 713c
000001d0: 890c 2c3c c356 31bd f428 3ebe 556b 3b3d
000001e0: 18ad 283d a3bd 483c bc41 a4bd a4e7 63be
000001f0: 853d 803d 5565 cf3d afab 05bf 3c96 fbbd
00000200: 41b8 bb3e 87c5 8a3e 7ff3 05bd ac41 2abf
00000210: 0fbc 14be bd39 823d 0b20 ebbc 5233 8c3c
00000220: 4b0c 77be 6632 52be 5cae 5cbd be25 13be
00000230: 5c7f 5b3d 31d6 3d3e 657a 0b3e 7291 063e
00000240: 32d2 81ba 6ed3 673d 11f1 363e a9a3 243e
00000250: 622d d33d 9b7d 50bd 7a70 afbd ae61 b63c
00000260: d436 a9bd 32e9 cabe 2d3b 99be 304f 023e
00000270: af5e 733c d2cb 14be 09ae fdbd 467d fdbb
00000280: 4986 733d 23b2 ecbd b4af f63c da6e b1bc
00000290: c86c e3bd 4059 1bbe 7587 5ebe 0bf6 fd3c
000002a0: c6ff 5dbd 09b0 90bd ff4b 8ebe 2fa5 10be
000002b0: 33a6 b0bd daf3 d4bc 232f e43c 8a30 ddbc
000002c0: 4a68 6e3e ddfd bb3d 5b24 ed3d 6878 91be
000002d0: 6d31 313e de0c f63d 80bc 52bd 1778 2d3d
000002e0: bd94 32bd 1002 d83d 6d2d 0a3e 2044 32bd
000002f0: ca82 c83d 366d ebba eeb6 263c f758 2f3e
00000300: bd89 923d d4d7 833a 299d 4abc 8069 293d
00000310: c20b 433d d86e 853e 9fb0 2a3e e2d9 b9bc
00000320: 3436 39be ed58 87bd 906b 513e cbfb d03e
00000330: bab8 b9bd 2107 8637 7d5d 17bd ddc2 debd
00000340: 6726 793e 589e 723e 9ffd 8a3c af76 2ebe
00000350: 2b87 483d 26bd a33d 2421 7b3d 858f 98bd
00000360: 7dee d5be 7867 5dbd 152f fc3c c46b e1bc
00000370: 8c17 8c3b 2146 e5be 4ceb 83bd 7145 df3d
00000380: 391b a6bd e0c6 24be 5705 533e 6df8 543e
00000390: 2fe5 233d 38c7 dabc 226f 0fbd 7965 f73d
000003a0: 2c22 103d ae87 8c3d 2629 7f3d 9c19 613c
000003b0: 4ee2 253e 3a27 94bc 3839 bcbd 1972 87bd
000003c0: d09f fcbd e697 833b ce32 a8bd cee0 4cbe
000003d0: 79c6 f5bd d128 86be 3d2d 4a3c dd9f ccbc
000003e0: 6b2f 59be 361b 5239 f9d9 0a3d 8995 86bb
000003f0: 1d71 dabd 3e56 2b3d 1707 463d 8a9b 873d

fc3.bias f4 [16]
-0.15029308 -0.36733225 0.28909364 0.110749334 0.563 0.058527302 -0.16939943 -0.008935145
0.10032125 -0.027288586 -0.28589657 0.32984513 6.8043395e-05 -0.060068637 0.08997721 -0.004545593
00000000: 6ee6 19be f912 bcbe 1504 943e 8cd0 e23d
00000010: c520 103f 53ba 6f3d 0b77 2dbe b764 12bc
00000020: 3a75 cd3d 508c dfbc 0961 92be 76e1 a83e
00000030: 85b2 8e38 880a 76bd f945 b83d 33f3 94bb

fc5.weight f4 [120, 16, 5, 5]
0.036632176 -0.23283449 0.17127158 0.2533758 -0.17365235 0.1135918 0.1509048 -0.15458122
0.13760573 -0.08503057 -0.20107155 -0.037757583 -0.37700438 0.15038674 0.118087046 -0.34834096
0.019341188 -0.36519128 -0.027906127 0.106566794 0.10881182 0.19972137 -0.016208554 0.12722585
0.09567352 -0.2634049 -0.102793716 -0.3569882 0.07224452 0.099745765 -0.46567863 -0.066524826
-0.028739864 -0.023405159 0.10122958 -0.47559658 0.008506293 -0.05285866 0.036956757 0.057843626
-0.3596779 -0.037694808 0.10155808 0.06338359 -0.03238289 -0.15665655 -0.31113237 0.17815787
0.14870775 0.07443916 0.059299454 -0.14261065 -0.061167724 0.11756986 -0.03418776 -0.0558515
-0.051801253 -0.011640461 0.046929248 0.0905495 0.17616947 0.041205123 -0.26448837 -0.24026732
0.009564548 -0.0428034 -0.18981355 -0.01305837 -0.39092708 -0.20766452 -0.050278734 -0.1297187
0.12346748 -0.0518474 -0.2556418 0.06259861 0.042835463 0.11612606 0.074671715 0.09027841
0.015295221 0.14775398 0.19340818 -0.07974067 0.11627075 -0.07811889 0.0022101768 0.0732833
-0.1751365 0.022282727 0.037800584 0.06646402 -0.13824463 -0.098418616 -0.029648315 0.14451076
-0.20726794 -0.19726835 -0.45462963 -0.19665886 0.07346663 0.0048184963 0.058563575 -0.2494152
0.070391074 0.0075110537 0.032463633 0.11059799 -0.11379206 -0.19202349 -0.18813404 -0.24530739
-0.15403832 -0.0134790875 -0.07977009 0.20737705 -0.012268721 -0.03020161 -0.2177469 0.016373646
0.23308821 0.22970252 0.2756927 -0.12819958 0.18799625 -0.29426897 0.28159356 0.12787089
-0.56351596 -0.5312127 -0.37741682 0.08878412 0.06343132 -0.14437819 -1.0258536 -0.1525264
0.19002771 0.08918215 0.064977095 -0.20917647 -0.03590532 -0.13593593 -0.11007153 0.06647038
-0.020257706 -0.0414334 -0.254749 -0.0727172 -0.04336822 0.1711182 -0.14887913 -0.14508569
-0.077058926 -0.34315187 -0.2421168 -0.36226743 -0.1461273 -0.31830618 -0.2998683 -0.51932627
-0.13820185 -0.2163451 -0.15938951 -0.116074145 -0.3892026 -0.13983062 0.306961 -0.007027327
-0.019791486 0.12839708 0.07374764 0.04834746 -0.0080929 -0.011076999 0.15317965 -0.26321256
-0.07038843 -0.34320605 0.004989246 0.04738844 -0.6731794 -0.32090694 -0.17196092 -0.086260274
-0.012522116 -0.13036375 0.059100058 -0.12790942 -0.1707016 0.047337677 0.01812045 0.013862269
0.1110551 -0.20138435 -0.16197433 -0.19428305 -0.39168838 -0.17441732 -0.02085519 -0.53147906
0.20203426 0.18367611 -0.10301924 0.17969117 -0.20138541 0.07795501 0.0026496937 0.018144926
0.13000791 0.13154604 -0.22838262 -0.08971411 -0.06678833 -0.106168345 -0.06144556 0.02573372
-0.093671754 -0.42757982 -0.30611634 0.2557708 -0.16182914 0.04057985 0.051276226 -0.0695055
0.12169943 -0.0757066 -0.04287774 -0.32314575 -0.3227547 -0.111655965 0.07324164 -0.008209655
-0.020944463 -0.5480337 -0.1786024 0.009444311 -0.16507973 0.075639285 0.085416816 0.02949988
0.15384448 -0.26289943 -0.16662985 0.0426199 -0.21603996 0.0213228 0.009338423 0.12176095
0.2527356 0.18142086 -0.012280227 -0.14327082 -0.5129443 -0.12562361 0.1164347 -0.16444853
00000000: 9f0b 163d 2a6c 6ebe d161 2f3e 79ba 813e
00000010: ecd1 31be d1a2 e83d ca86 1a3e 8a4a 1ebe
00000020: 84e8 0c3e 8224 aebd b3e5 4dbe b2a7 1abd
00000030: b806 c1be fbfe 193e 9fd7 f13d bf59 b2be
00000040: 6971 9e3c 5afa babe 649b e4bc b13f da3d
00000050: bbd8 de3d c283 4c3e cdc7 84bc 7e47 023e
00000060: 7af0 c33d 02dd 86be 8385 d2bd 28c7 b6be
00000070: eff4 933d 8247 cc3d 6e6d eebe 2b3e 88bd
00000080: dd6f ebbc 2dbc bfbc 7451 cf3d 6581 f3be
00000090: fb5d 0b3c 5382 58bd f85f 173d 70ed 6c3d
000000a0: b427 b8be df65 1abd affd cf3d 41cf 813d
000000b0: eca3 04bd 936a 20be be4c 9fbe 046f 363e
000000c0: d846 183e 8f73 983d fce3 723d 8708 12be
000000d0: 028b 7abd 77c8 f03d 7708 0cbd 8bc4 64bd
000000e0: 8d2d 54bd a2b7 3ebc e238 403d 0472 b93d
000000f0: c565 343e b4c6 283d 056b 87be a308 76be
00000100: 9fb4 1c3c 9e52 2fbd 7c5e 42be c6f2 55bc
00000110: 9827 c8be 02a6 54be 13f1 4dbd fbd4 04be
00000120: 85dc fc3d f05d 54bd 7be3 82be b333 803d
00000130: 3d74 2f3d 80d3 ed3d 7ced 983d e3e3 b83d
00000140: ce98 7a3c d24c 173e cb0c 463e 144f a3bd
00000150: 5c1f ee3d ccfc 9fbd 9dd8 103b 8e15 963d
00000160: fc56 33be 448a b63c c9d4 1a3d 4a1e 883d
00000170: 0090 0dbe b38f c9bd 06e1 f2bc a1fa 133e
00000180: 0c3e 54be b700 4abe 37c5 e8be f160 49be
00000190: ac75 963d 7ae4 9d3b 5ce0 6f3d b366 7fbe
000001a0: 3229 903d 491f f63b 96f8 043d 3381 e23d
000001b0: d00b e9bd cea1 44be 36a6 40be dc31 7bbe
000001c0: 39bc 1dbe 64d7 5cbc 805e a3bd a65a 543e
000001d0: bf02 49bc 5e69 f7bc 0bf9 5ebe 0622 863c
000001e0: adae 6e3e 2337 6b3e 9827 8d3e c046 03be
000001f0: 1782 403e 6caa 96be 082d 903e 96f0 023e
00000200: 9542 10bf 8efd 07bf c73c c1be 73d4 b53d
00000210: 48e8 813d e0d7 13be 2c4f 83bf e12f 1cbe
00000220: a096 423e 22a5 b63d b612 853d 5b32 56be
00000230: 7511 13bd ca32 0bbe 2f6d e1bd 9f21 883d
00000240: 7df3 a5bc 12b6 29bd 766e 82be c1ec 94bd
00000250: e0a2 31bd 9c39 2f3e c573 18be 5891 14be
00000260: 12d1 9dbd 9ab1 afbe 77ed 77be 1e7b b9be
00000270: 65a2 15be 07f9 a2be 5688 99be 91f2 04bf
00000280: c984 0dbe 9289 5dbe 0137 23be 48b8 edbd
00000290: 9045 c7be c22f 0fbe fe29 9d3e 7e45 e6bb
000002a0: c121 a2bc 867a 033e 0109 973d fc07 463d
000002b0: 1598 04bc 4d7c 35bc 20db 1c3e ccc3 86be
000002c0: cf27 90bd b4b8 afbe d47c a33b 621a 423d
000002d0: 7c55 2cbf ea4d a4be 8616 30be 3aa9 b0bd
000002e0: 9029 4dbc 137e 05be e712 723d b0fa 02be
000002f0: 66cc 2ebe 27e5 413d 5771 943c 921e 633c
00000300: db70 e33d b337 4ebe 99dc 25be 23f2 46be
00000310: 618b c8be 749a 32be 81d8 aabc 030f 08bf
00000320: 12e2 4e3e 9715 3c3e c0fb d2bd f600 383e
00000330: fa37 4ebe e0a6 9f3d 7ca6 2d3b aba4 943c
00000340: cb20 053e 01b4 063e 22dd 69be 08bc b7bd
00000350: 52c8 88bd ca6e d9bd 57ae 7bbd 86cf d23c
00000360: fad6 bfbd beeb dabe 48bb 9cbe 64f4 823e
00000370: 8ab6 25be 0f37 263d 0507 523d e658 8ebd
00000380: 8d3d f93d 100c 9bbd 92a0 2fbd 5c73 a5be
00000390: 1b40 a5be e2ab e4bd b7ff 953d ca81 06bc
000003a0: b993 abbc f04b 0cbf 8ce3 36be 50bc 1a3c
000003b0: a90a 29be c5e8 9a3d 03ef ae3d bba9 f13c
000003c0: 6889 1d3e c19a 86be 04a1 2abe 3492 2e3d
000003d0: 9439 5dbe 27ad ae3c 2f00 193c ce5d f93d
000003e0: 9066 813e 64c6 393e 0133 49bc 96b5 12be
000003f0: 5150 03bf 7aa3 00be 5175 ee3d 3265 28be

fc5.bias f4 [120]
0.19727227 -0.061441325 -0.038975768 0.08061856 -0.036663987 0.10664491 0.006030571 0.2606114
0.30360207 -0.004411848 0.1105093 0.035688393 -0.056918222 0.0028708808 0.15886655 0.0017248816
0.22459146 0.28381133 -0.055806316 0.2728305 0.023138087 0.062736936 -0.057071038 -0.08371745
0.17544998 0.13384135 0.21252182 0.2226329 -0.07883987 -0.0605397 -0.03841023 0.1921783
0.12764293 0.30758572 -0.14722247 0.15514462 -0.056725215 0.2638792 -0.17693497 -0.033954687
-0.106029324 -0.098363 0.15727554 0.51378 0.4156539 0.27208832 -0.03157441 -0.0071159713
0.09727239 -0.01328523 -0.0986661 0.09027035 0.20132734 0.17738496 0.10400414 -0.030419959
0.31334803 0.062297236 0.13882707 -0.0039929184 -0.037423234 0.2252346 0.16459061 -0.076992676
0.11317624 0.14044493 0.35112953 -0.15863991 0.115242586 0.12221095 -0.2567227 -0.29510167
0.20487678 0.052812643 -0.019304689 0.26373494 0.10630136 0.4004947 -0.01984159 -0.0009754916
0.10519107 0.15382306 0.32336226 0.28271145 0.20297684 0.0061518196 0.11519338 0.1757099
-0.07591337 0.023371339 0.13929832 0.2464402 -0.07791425 0.32767853 -0.024393152 0.23375912
0.19034652 0.040734023 0.23030593 -0.020606626 -0.104751475 0.23934056 -0.27778557 0.043819442
0.22586131 0.32327682 0.089243576 0.21437019 0.14266865 0.2899035 -0.0024609356 -0.05479978
0.14691658 0.06263824 -0.0653993 0.20172654 0.31911072 -0.11108724 0.24964161 0.21584831
00000000: be01 4a3e e6a9 7bbd 0ea5 1fbd 581b a53d
00000010: fa2c 16bd a668 da3d 199c c53b db6e 853e
00000020: bb71 9b3e 4391 90bb b352 e23d fe2d 123d
00000030: 1523 69bd 6325 3c3b eaad 223e 6c15 e23a
00000040: 4efb 653e b84f 913e 2a95 64bd 70b0 8b3e
00000050: 168c bd3c 397c 803d 52c3 69bd 0e74 abbd
00000060: 29a9 333e b50d 093e 529f 593e e1f9 633e
00000070: cc76 a1bd 7af8 77bd 0c54 1dbd 63ca 443e
00000080: d4b4 023e e07b 9d3e 7dc1 16be 3bde 1e3e
00000090: b358 68bd 2d1b 873e 712e 35be 1214 0bbd
000000a0: e725 d9bd 8a72 c9bd d70c 213e 1687 033f
000000b0: 97d0 d43e 294f 8b3e 2b54 01bd 182d e9bb
000000c0: bf36 c73d 4baa 59bc 7411 cabd a9df b83d
000000d0: c128 4e3e 67a4 353e 1f00 d53d 4733 f9bc
000000e0: 276f a03e 632b 7f3d af28 0e3e 07d7 82bb
000000f0: 1b49 19bd e6a3 663e 718a 283e 56ae 9dbd
00000100: f2c8 e73d ccd0 0f3e 40c7 b33e 8072 22be
00000110: 4e04 ec3d bc49 fa3d 2871 83be 9117 97be
00000120: 38cb 513e 1252 583d de24 9ebc 4408 873e
00000130: 87b4 d93d a40d cd3e d58a a2bc 22b8 7fba
00000140: 6a6e d73d cb83 1d3e bd8f a53e 8ebf 903e
00000150: 29d9 4f3e 3495 c93b 82ea eb3d 4ced 333e
00000160: 7878 9bbd 4075 bf3c 38a4 0e3e d25a 7c3e
00000170: 8291 9fbd 7bc5 a73e 26d4 c7bc 8d5e 6f3e
00000180: 33ea 423e b8d8 263d 51d5 6b3e 3acf a8bc
00000190: f187 d6bd b115 753e e939 8ebe 047c 333d
000001a0: 3048 673e 8a84 a53e 56c5 b63d dc83 5b3e
000001b0: bb17 123e 3b6e 943e a647 21bb bc75 60bd
000001c0: 4d71 163e 7a48 803d 11f0 85bd 6791 4e3e
000001d0: 7b62 a33e b581 e3bd 0da2 7f3e 5707 5d3e

fc6.weight f4 [84, 120]
-0.32898268 -0.04065522 0.11052787 0.14818442 0.053461444 -0.027948547 0.22689067 0.13944644
0.23404305 -0.2569056 0.17730483 -0.19097178 0.063177474 -0.14515364 -0.4743258 -0.019765565
-0.05662372 0.106875524 -0.11064826 -0.1447327 0.15157473 0.09517686 -0.6240736 -0.023900717
0.00024533062 -0.21012755 -0.13446961 -0.23739679 0.088299975 -0.38772768 -0.030464752 -0.20295486
0.36447218 -0.04807003 -0.28231764 -0.021377016 0.27018878 0.37770456 0.102242954 -0.12957187
-0.011725471 0.22356811 -0.25919828 0.099387065 -0.2979775 -0.18467376 -0.3225606 0.2288715
0.111274466 -0.11315972 0.04174963 0.02238455 0.02443513 0.08669425 -0.01448662 0.044489216
-0.11994909 -0.055002075 0.1190696 -0.0624684 0.009920847 -0.5359793 0.05705998 -0.017462756
-0.24435835 -0.02858967 0.066578686 -0.21163045 -0.20241505 -0.4348977 -0.06079253 0.048797965
-0.427408 0.088051796 -0.10979597 -0.3875671 0.08086579 0.13802254 0.13379234 -0.15658253
0.029988678 0.05595609 0.0034550724 0.16922918 -0.19134685 0.003250895 0.030394904 0.08238405
0.10571063 0.05256628 0.10890628 -0.023153447 0.051859844 0.017506227 -0.0043760743 0.2856393
-0.015713222 -0.14653651 0.117109984 -0.024110343 -0.044108022 -0.045272235 -0.19062155 -0.16971369
-0.09802551 0.17245804 0.055585105 0.02913941 -0.14968324 0.12481636 0.03406234 0.0057304874
0.02717778 -0.03589892 0.028025968 0.12774692 0.058129724 0.008406731 0.15845203 0.15605043
-0.21548834 -0.06159638 0.03438687 0.031884786 -0.009770082 0.07729701 -0.03503352 -0.18457767
-0.090118155 0.119715676 -0.07630402 0.03485055 -0.050504897 0.27593425 -0.3921296 -0.052719742
0.04048451 -7.933944e-05 0.08091598 0.015224687 0.105611496 0.085759126 0.20773745 -0.013552988
0.09694283 0.13409144 0.16084233 0.010654264 0.029885259 0.090862386 0.0021557105 0.20944133
-0.13960683 -0.16471459 -0.071999274 -0.30170125 -0.24172395 -0.17312744 0.10200772 0.2182517
0.010527627 -0.12824783 -0.18605414 0.083680205 -0.03828049 0.062578045 0.18577819 0.10366436
-0.29027537 0.15136445 -0.17957129 0.11871083 0.047001354 0.06292281 0.20983006 -0.02481662
-0.09460913 0.14631715 0.2630725 0.051894855 -0.038126286 0.057079654 0.05203442 0.05195853
0.15301959 -0.0020405226 -0.022746475 0.09385668 -0.13040797 -0.104553625 0.121587686 0.034041446
-0.34356785 0.12755707 -0.07503187 -0.34607753 -0.0023220037 -0.33210447 0.24494487 0.02471861
0.12350654 -0.14109522 0.09890694 -0.07247464 -0.2018196 -0.03553445 -0.032182954 -0.23786956
-0.0075928075 0.014913899 -0.0010004514 0.10599174 -0.064679116 -0.28193393 -0.0077477572 -0.1747449
0.022059787 0.20935369 -0.113510974 -0.029336447 0.06882977 0.03755704 0.053315915 -0.34513855
0.052663226 -0.006924732 0.07380235 -0.3307242 -0.2515117 0.11405281 -0.19840263 0.064677335
0.12831172 -0.015162629 -0.00031897498 -0.0025213095 -0.22450323 0.046707503 -0.013786894 -0.04612689
-0.03587068 -0.07497005 0.037197948 0.14818576 0.086274356 0.11553324 0.028256416 0.0031993294
0.1272869 -0.015368289 -0.24587639 -0.07288428 -0.13691819 0.0210152 -0.38008928 -0.10436535
00000000: 6b70 a8be 1786 26bd 705c e23d a8bd 173e
00000010: 63fa 5a3d 5af4 e4bc 0756 683e 0ccb 0e3e
00000020: fba8 6f3e 2189 83be 668f 353e 1b8e 43be
00000030: 3163 813d 28a3 14be d5da f2be 65eb a1bc
00000040: 46ee 67bd 8ee1 da3d 8e9b e2bd cf34 14be
00000050: 6836 1b3e 16ec c23d 4ac3 1fbf 70cb c3bc
00000060: b89f 8039 ad2b 57be 67b2 09be 2518 73be
00000070: 9ed6 b43d 3e84 c6be 3791 f9bc 66d3 4fbe
00000080: 199c ba3e 14e5 44bd f08b 90be da1e afbc
00000090: 2f56 8a3e 7e62 c13e c164 d13d 7dae 04be
000000a0: 311c 40bc 0aef 643e a3b5 84be 728b cb3d
000000b0: 8290 98be 1e1b 3dbe aa26 a5be 4a5d 6a3e
000000c0: dee3 e33d 49c0 e7bd a901 2b3d ce5f b73c
000000d0: 2f2c c83c c18c b13d 4a59 6dbc 533a 363d
000000e0: dea7 f5bd db49 61bd c3da f33d ddde 7fbd
000000f0: 0c8b 223c f035 09bf bab7 693d 0e0e 8fbc
00000100: 1339 7abe e234 eabc 685a 883d a7b5 58be
00000110: e445 4fbe e9aa debe 9701 79bd 60e0 473d
00000120: 39d5 dabe 8054 b43d b6dc e0bd 326f c6be
00000130: f79c a53d c855 0d3e dc00 093e 2c57 20be
00000140: d1aa f53c 3732 653d 7f6e 623b 6a4a 2d3e
00000150: 6ef0 43be f80c 553b bcfe f83c f8b8 a83d
00000160: d17e d83d bd4f 573d 410a df3d 4cac bdbc
00000170: fd6a 543d 3869 8f3c 2c65 8fbb 503f 923e
00000180: 04b9 80bc ab0d 16be 5cd7 ef3d 0e83 c5bc
00000190: 9daa 34bd 616f 39bd 4c32 43be 6dc9 2dbe
000001a0: 99c1 c8bd d798 303e 35ad 633d c6b5 ee3c
000001b0: 9046 19be b89f ff3d f484 0b3d d0c6 bb3b
000001c0: f0a3 de3c bf0a 13bd b796 e53c 17d0 023e
000001d0: 6f19 6e3d 63bc 093c 4041 223e afcb 1f3e
000001e0: faa8 5cbe 7c4c 7cbd 3fd9 0c3d 9f99 023d
000001f0: b212 20bc e54d 9e3d 4f7f 0fbd ee01 3dbe
00000200: de8f b8bd 7e2d f53d 4845 9cbd 73bf 0e3d
00000210: 39de 4ebd 4147 8d3e 36c5 c8be a8f0 57bd
00000220: 16d3 253d 0a63 a6b8 47b7 a53d f770 793c
00000230: d74a d83d 7ba2 af3d 20b9 543e 5a0d 5ebc
00000240: f689 c63d 444f 093e dab3 243e 398f 2e3c
00000250: eed1 f43c 0f16 ba3d d246 0d3b ca77 563e
00000260: 18f5 0ebe f1aa 28be 5b74 93bd 9678 9abe
00000270: 7c86 77be 5248 31be 6ce9 d03d 607d 5f3e
00000280: 117c 2c3c 6653 03be fa84 3ebe 8760 ab3d
00000290: 01cc 1cbd eb28 803d a33c 3e3e fb4d d43d
000002a0: f99e 94be 48ff 1a3e 89e1 37be aa1e f33d
000002b0: 7e84 403d addd 803d b1dd 563e 394c cbbc
000002c0: 6ec2 c1bd 2ad4 153e 70b1 863e b38f 543d
000002d0: 4f2a 1cbd 5bcc 693d 0b22 553d 78d2 543d
000002e0: 2bb1 1c3e 4aba 05bb d156 babc ee37 c03d
000002f0: ab89 05be 3620 d6bd f702 f93d 0b6f 0b3d
00000300: 20e8 afbe 529e 023e 4faa 99bd 1331 b1be
00000310: c22c 18bb 9909 aabe d4d2 7a3e af7e ca3c
00000320: fff0 fc3d 447b 10be b98f ca3d 966d 94bd
00000330: cca9 4ebe 928c 11bd 46d2 03bd 1494 73be
00000340: 16cd f8bb 6d59 743c 9421 83ba 3312 d93d
00000350: 7c76 84bd a559 90be e6e0 fdbb 54f0 32be
00000360: bab6 b43c d060 563e 7178 e8bd fd52 f0bc
00000370: 9ff6 8c3d 69d5 193d ca61 5a3d 00b6 b0be
00000380: 65b5 573d dde8 e2bb b025 973d af54 a9be
00000390: 24c6 80be 8594 e93d 0f2a 4bbe 8d75 843d
000003a0: 2664 033e ad6c 78bc 193c a7b9 8e3c 25bb
000003b0: 2de4 65be 5e50 3f3d 6de2 61bc 8def 3cbd
000003c0: 22ed 12bd e689 99bd e05c 183d 02be 173e
000003d0: 9cb0 b03d b19c ec3d 007a e73c d7ab 513b
000003e0: 7f57 023e 47cb 7bbc 05c7 7bbe 5a44 95bd
000003f0: 4834 0cbe 1228 ac3c 109b c2be 80bd d5bd

fc6.bias f4 [84]
0.5659861 0.13854173 0.33200955 0.3353834 0.36651018 0.12519458 0.63745487 0.30162883
0.557837 0.25014845 0.42709327 0.376159 0.5654735 0.30307123 -0.037765253 -0.10597894
-0.17525531 0.34231114 0.3949582 0.50172275 0.19961949 0.55097383 0.21316314 0.3465308
0.33199787 0.52747357 0.3881755 0.4583414 0.17429194 0.40403226 -0.003771421 0.043546267
0.19581261 0.15193008 0.050770026 0.026719863 0.31943083 0.44677162 -0.14237575 0.41946974
-0.12967572 0.2885576 0.2474568 0.09177772 0.5426699 0.12614386 0.28150403 0.019134022
0.0070676184 0.52703667 0.67282975 -0.03827466 0.09805555 0.36020783 0.2587486 0.19912305
0.15337007 0.4497754 0.13060762 0.5126664 0.13066715 0.3310347 0.12140746 0.53513277
0.37718728 0.60407853 0.38202876 0.4648538 0.36386958 0.50639814 0.53329736 0.10558038
0.66963387 0.63146603 0.6482502 0.11307597 0.5798534 -0.029674998 0.52013755 0.14986405
0.5281395 0.09364504 0.356861 0.092241265
00000000: 77e4 103f e2dd 0d3e 28fd a93e 5fb7 ab3e
00000010: 39a7 bb3e 0233 003e 3e30 233f 186f 9a3e
00000020: 68ce 0e3f 7513 803e f8ab da3e ea97 c03e
00000030: dfc2 103f 272c 9b3e bdaf 1abd 7d0b d9bd
00000040: 2176 33be 6843 af3e f637 ca3e e770 003f
00000050: 0d69 4c3e 9f0c 0d3f 7047 5a3e 7c6c b13e
00000060: a0fb a93e 8208 073f f0be c63e b9ab ea3e
00000070: 9679 323e 51dd ce3e f229 77bb 925d 323d
00000080: 1a83 483e 8f93 1b3e 3bf4 4f3d 9de3 da3c
00000090: 708c a33e 40bf e43e f3ca 11be bdc4 d63e
000000a0: b6c9 04be d2bd 933e 5165 7d3e f5f5 bb3d
000000b0: 6aec 0a3f db2b 013e 4c21 903e f4be 9c3c
000000c0: 7b97 e73b e0eb 063f 923e 2c3f e4c5 1cbd
000000d0: 59d1 c83d 296d b83e b27a 843e eae6 4b3e
000000e0: 0b0d 1d3e f648 e63e 01be 053e 1b3e 033f
000000f0: 9ccd 053e 617d a93e 79a4 f83d 76fe 083f
00000100: b11e c13e e4a4 1a3f 4699 c33e 5101 ee3e
00000110: 1d4d ba3e 4fa3 013f 2d86 083f 873a d83d
00000120: 206d 2b3f c2a7 213f baf3 253f 6094 e73d
00000130: 4671 143f fb18 f3bc bc27 053f f675 193e
00000140: 2634 073f f9c8 bf3d 7cb6 b63e fde8 bc3d

fc7.weight f4 [10, 84]
0.16334459 0.038090497 0.04726036 0.1387547 0.0505153 0.13705562 -0.5132921 -0.05586632
-0.28733057 0.019684047 -0.22820538 -0.2207335 0.10542756 0.10994809 0.119823046 -0.40425527
0.1578871 -0.11177655 0.1374512 -0.09604995 0.07584137 -0.3611264 -0.12532784 0.035084296
-0.013076248 -0.0598531 0.11166369 0.04935874 0.08118102 -0.43448326 -0.025828088 0.0731174
0.056722734 0.07295682 -0.15203291 -0.028737009 0.041757505 -0.13750342 -0.08984484 0.03207424
-0.17691587 -0.07911435 0.11720073 -0.048045743 -0.04641255 -0.34057885 -0.10594769 0.082874075
0.011318794 0.10309363 0.07441965 -0.1431102 -0.081754334 -0.12099463 -0.32977015 -0.025728261
0.102110244 0.06675614 0.03817023 0.13033135 -0.048816383 -0.07993865 0.0027790673 0.016571222
0.08913357 -0.5454552 0.0717434 -0.314744 -0.11521024 0.05729442 0.00953487 -0.09926106
-0.20012815 -0.21730082 -0.22101496 -0.23538992 0.17873783 -0.089647345 0.058401313 -0.018398259
-0.046343092 -0.23824087 0.16711032 -0.12048245 -0.49910122 -0.009921755 -0.4333732 -0.30048063
-0.48392415 -0.23812003 -0.0049271923 -0.30730787 -0.22408497 -0.14642377 -0.2426396 -0.16723686
-0.5527991 -0.18992437 0.24684301 0.120264225 0.21189015 -0.6739143 0.19540007 -0.0025873312
-0.1278466 -0.26387104 0.24545841 -0.63072205 0.07235132 -0.23537824 -0.070432544 0.17632581
0.07494542 -0.84201294 -0.20149362 0.03561497 0.20135355 -0.21757536 0.1586342 0.14392282
0.28206247 -0.29754826 -0.45240384 -0.04594743 -0.35027102 0.0061543053 0.022872504 0.110817894
0.08893725 0.2797694 -0.098256856 -0.38582906 0.049150888 -0.14646879 -0.30948156 -0.15609065
0.065817095 0.016570926 0.0012257652 -0.035880234 -0.4107059 -0.3317339 0.19237578 -0.3764025
-0.28485987 -0.052416675 0.1477225 -0.27264962 0.07810655 -0.26582506 -0.50611573 -0.13576637
0.15939525 -0.061841484 -0.25435066 0.12863587 0.12079622 -0.59597963 -0.4569161 0.1629225
-0.38968465 -0.028131444 -0.41595373 -0.11375152 -0.0058082337 0.11581684 0.005008804 -0.4174802
0.110296 -0.020121852 0.021286827 0.018252783 0.10272836 -0.35344052 -0.20235421 0.07253268
0.10999495 -0.07910475 -0.17493163 -0.3193368 0.106137246 -0.03418067 0.05834231 -0.042639103
0.0798884 0.1814572 -0.27908808 0.08760277 0.15414232 0.062704645 0.16018276 -0.39713895
0.084726535 -0.042563457 -0.05481933 -0.022588026 0.14102575 -0.70036495 -0.2782956 -0.07173073
-0.14292501 0.06405006 -0.09537215 -0.05003392 0.13693078 -0.040437587 0.004018128 -0.25185448
-0.33924332 -0.13562497 -0.11625431 -0.1251561 -0.29296833 -0.12239284 -0.076367 0.008962983
-0.042364854 -0.055035528 0.08270611 -0.20549703 -0.18460618 -0.10627825 -0.14406428 -0.11669823
-0.047965292 0.17194586 -0.13073964 -0.118702404 0.022416202 -0.15340714 0.10632595 0.15277871
-0.32429865 -0.02587151 0.046781965 -0.087608576 0.067713335 0.055920612 -0.29399434 0.019707965
0.03565568 0.036086593 0.13312677 0.063324414 -0.38047305 -0.15098785 -0.016446926 -0.015172302
-0.3270019 -0.049749713 -0.10049123 0.0045303274 0.05284044 -0.050835926 -0.0062065655 -0.33248353
00000000: ce43 273e c804 1c3d 1494 413d b615 0e3e
00000010: 22e9 4e3d 4f58 0c3e 1c67 03bf 15d4 64bd
00000020: fe1c 93be 7040 a13c acae 69be f607 62be
00000030: 68ea d73d 772c e13d c965 f53d 8cfa cebe
00000040: 28ad 213e 1beb e4bd 02c0 0c3e d6b5 c4bd
00000050: b852 9b3d 8fe5 b8be f155 00be 8db4 0f3d
00000060: c23d 56bc 8628 75bd efaf e43d 642c 4a3d
00000070: 3c42 a63d 9774 debe 6d95 d3bc 93be 953d
00000080: 1956 683d 636a 953d 84ae 1bbe e069 ebbc
00000090: eb09 2b3d b2cd 0cbe 9200 b8bd 4760 033d
000000a0: 6f29 35be b406 a2bd f006 f03d 9dcb 44bd
000000b0: 161b 3ebd 5a60 aebe 1afb d8bd e2b9 a93d
000000c0: 7772 393c c122 d33d 5469 983d 7b8b 12be
000000d0: d16e a7bd 08cc f7bd a2d7 a8be 13c4 d2bc
000000e0: 2d1f d13d 71b7 883d 6358 1c3d 9575 053e
000000f0: b0f3 47bd e0b6 a3bd 0321 363b 5fc0 873c
00000100: a98b b63d f4a2 0bbf 34ee 923d 2026 a1be
00000110: 59f3 ebbd 8ead 6a3d 2538 1c3c 6249 cbbd
00000120: 65ee 4cbe 1b84 5ebe bf51 62be 0e0a 71be
00000130: 0d07 373e 0799 b7bd 3736 6f3d f2b7 96bc
00000140: 41d2 3dbd 6af5 73be f81e 2b3e 81bf f6bd
00000150: 328a ffbe db8e 22bc 18e3 ddbe 99d8 99be
00000160: e8c4 f7be bdd5 73be 4974 a1bb 7557 9dbe
00000170: 8876 65be 1df0 15be 8476 78be 2440 2bbe
00000180: 3e84 0dbf 897b 42be 6ac4 7c3e 174d f63d
00000190: bbf9 583e a685 2cbf f516 483e 3790 29bb
000001a0: 38ea 02be 1b1a 87be 7359 7b3e 0077 21bf
000001b0: ee2c 943d fe06 71be f03e 90bd c18e 343e
000001c0: fc7c 993d 298e 57bf 5854 4ebe 01e1 113d
000001d0: a02f 4e3e 13cc 5ebe 0171 223e 8160 133e
000001e0: 7e6a 903e 3f58 98be 7aa1 e7be 5f33 3cbd
000001f0: b956 b3be 0eaa c93b 1e5f bb3c 7ef4 e23d
00000200: bc24 b63d ef3d 8f3e e43a c9bd 638b c5be
00000210: 7152 493d eafb 15be 5e74 9ebe 3ad6 1fbe
00000220: 1dcb 863d c0bf 873c dba9 a03a 27f7 12bd
00000230: 0b48 d2be 07d9 a9be 28fe 443e d4b7 c0be
00000240: 27d9 91be deb2 56bd 9144 173e bb98 8bbe
00000250: 54f6 9f3d 391a 88be cd90 01bf 5706 0bbe
00000260: 8238 233e 7f4d 7dbd 403a 82be 1fb9 033e
00000270: 0264 f73d 1f92 18bf e8f0 e9be 28d5 263e
00000280: bf84 c7be ea73 e6bc e3f7 d4be 8ff6 e8bd
00000290: ff52 bebb 6131 ed3d e520 a43b f7bf d5be
000002a0: dfe2 e13d 95d6 a4bc b661 ae3c dc86 953c
000002b0: 3f63 d23d 28f6 b4be f135 4fbe 048c 943d
000002c0: 0845 e13d ac01 a2bd 4721 33be 1d80 a3be
000002d0: 7c5e d93d 0801 0cbd 59f8 6e3d 57a6 2ebd
000002e0: 889c a33d ebcf 393e a2e4 8ebe 1569 b33d
000002f0: 7cd7 1d3e 4b6b 803d f306 243e cc55 cbbe
00000300: 1b85 ad3d 0557 2ebd 3c8a 60bd 860a b9bc
00000310: 0e69 103e 1e4b 33bf c37c 8ebe 90e7 92bd
00000320: ef5a 12be ae2c 833d 7952 c3bd 5ef0 4cbd
00000330: 9537 0c3e e2a1 25bd 80aa 833b 12f3 80be
00000340: 4db1 adbe 46e1 0abe bd16 eebd ec28 00be
00000350: f2ff 95be 19a9 fabd 4d66 9cbd 7ad9 123c
00000360: c586 2dbd ef6c 61bd d261 a93d d06d 52be
00000370: 6709 3dbe 69a8 d9bd 9685 13be 7bff eebd
00000380: 4177 44bd 9312 303e 9de0 05be 3f1a f3bd
00000390: 2fa2 b73c c316 1dbe 6bc1 d93d 0672 1c3e
000003a0: 790a a6be 7df0 d3bc 729e 3f3d 206c b3bd
000003b0: 4aad 8a3d 030d 653d 6d86 96be 9972 a13c
000003c0: b10b 123d 89cf 133d 6252 083e 3bb0 813d
000003d0: 5dcd c2be 8f9c 1abe b4bb 86bc 3f95 78bc
000003e0: cb6c a7be 5bc6 4bbd 59ce cdbd 2473 943b
000003f0: 386f 583d 5539 50bd 7260 cbbb 483b aabe

fc7.bias f4 [10]
-0.06477124 -0.59530014 0.0481433 0.21637648 -0.029275011 -0.0880634 0.01957539 0.236309
0.2443637 -0.15316828
00000000: c9a6 84bd 9765 18bf e931 453d cc91 5d3e
00000010: 26d2 efbc 955a b4bd 915c a03c fdfa 713e
00000020: 7a3a 7a3e 25d8 1cbe
