lenet5.pth (torch, 249659 bytes, 10 tensors)

fc1.weight f4 [6, 1, 5, 5]
000000 72 f1 15 be a7 74 2f bc 73 36 91 3e dc 3d 88 3e
       -0.14642885 -0.010708964 0.28361854 0.26609695
000010 98 5a b3 be 5c 7f a9 3d 93 54 41 3d 6b eb aa 3e
       -0.35030055 0.08276245 0.047199797 0.33382735
000020 eb 7a 58 3e 55 0b 2d bf 7b 67 9f bd c8 6a d7 3e
       0.2114064 -0.67595416 -0.07783409 0.42073655
000030 e1 f8 c6 3e a3 d9 07 be 35 66 23 bf bd 0b e9 3d
       0.38861755 -0.13266616 -0.6382783 0.11379192
000040 05 6d 45 be 38 03 b1 3e f0 df 03 3e 21 74 c5 be
       -0.19279869 0.34572768 0.12878394 -0.38565162
000050 e4 15 12 bd 36 9b 62 3d f6 5f 5b 3e 70 b8 33 be
       -0.035665408 0.055323802 0.21423325 -0.17550826
000060 13 c6 89 bd ab dd 4f 3e fa eb 30 be ae 62 00 be
       -0.06727233 0.20299403 -0.17277518 -0.12537643
000070 0e e1 6d be e8 39 01 be e4 ae cd 3e 4a 07 7f 3e
       -0.23230383 -0.12619746 0.40172493 0.24905124
000080 1e 96 b3 be 86 36 0b bf 96 f6 bb be 2f 2f 69 3e
       -0.35075468 -0.5438007 -0.36711568 0.22771905
000090 2a 83 a2 3e fb 77 fb 3d 75 63 ab bd f7 f5 7e 3d
       0.31740695 0.12278744 -0.08368579 0.06224629
0000a0 fc 4f dd 3e 9d 88 18 3e 2d 9c 42 3e 1d 83 91 bd
       0.43225086 0.14895864 0.19004889 -0.07105086
0000b0 86 df 4e be ac cf 3a be f4 10 f6 3c 85 db 2a be
       -0.20202455 -0.18243283 0.03003738 -0.16685303
0000c0 d1 72 9a be 07 9a 07 bd ce e8 1f be a8 34 18 bd
       -0.30165723 -0.033105876 -0.15616152 -0.037159592
0000d0 35 93 70 bc 09 5c 2e 3d 1a c3 ca 3c 48 f2 14 bd
       -0.014683534 0.04256824 0.024751235 -0.03636387
0000e0 36 d6 6c 3d 11 1f 80 3e a6 b0 27 3d 16 37 8d bc
       0.057821475 0.25023702 0.04093995 -0.017238181
0000f0 09 05 ae 3e 00 cb 47 3e 1b f3 b7 3e 53 d7 e0 bd
       0.33988217 0.19511032 0.35927662 -0.1097857
000100 d8 ff 52 be 86 10 1a 3e e2 82 86 3e 2e 50 a4 3e
       -0.20605409 0.15045366 0.2627173 0.32092422
000110 e0 87 7c be de 11 da 3d 04 06 3d be c4 67 01 3e
       -0.24661207 0.10647939 -0.18459326 0.1263724
000120 9f b1 d4 bd 25 ff 8f 3e 41 58 71 3e 29 e7 14 3d
       -0.10385441 0.28124347 0.23568822 0.036353264
000130 41 60 5e 3e 3e d5 bb 3d 84 f7 05 3e 8a 94 40 39
       0.21716405 0.09171532 0.13082701 0.00018365882
000140 0a ee 64 bd f1 7a b0 3d ed da c9 3e ea 89 16 3d
       -0.055891074 0.08617199 0.3942484 0.03675262
000150 09 6f 02 be 46 a0 a2 3d bb 17 a3 be d9 50 a6 be
       -0.12737669 0.07940726 -0.31854042 -0.32483557
000160 bd da 39 3d 3c cf 66 bd be 04 5d bd 0c 8a 8a be
       0.04537462 -0.056349978 -0.0539596 -0.27058446
000170 e1 01 f3 be 99 21 ea be 51 2e f7 3d f5 2b 55 bc
       -0.4746237 -0.45728758 0.12069381 -0.013010968
000180 f9 ec 4e 3d e7 ae 10 be 98 84 1b be 03 11 5f bd
       0.050518963 -0.1412922 -0.15187299 -0.054459583
000190 37 a4 3b bd 74 b0 e8 3d d4 68 dc 3d 8d 70 23 3e
       -0.045810904 0.11361781 0.10762182 0.15960903
0001a0 f6 f5 6e 3e 78 be 7c bd fd 5e c0 be 2a 06 f5 be
       0.23336014 -0.061705083 -0.3757247 -0.47856265
0001b0 40 1a 87 be 3f a8 cc 3e d1 b3 2b 3e 10 f3 e1 be
       -0.26387215 0.39972112 0.16767813 -0.44130754
0001c0 ad 24 3b bf 81 04 d5 be c5 01 85 be 42 cc 15 bd
       -0.7310284 -0.41605 -0.25977913 -0.03657175
0001d0 d9 f8 8b 3e ab e5 02 3c a1 61 a7 bc 41 26 cf bd
       0.27338293 0.007989327 -0.020432295 -0.10114718
0001e0 70 31 0c be 68 20 60 bd cb 9b 7f bd 7d 56 00 3e
       -0.13690734 -0.054718405 -0.062404435 0.12532993
0001f0 3f f5 22 3e 66 dd 6a bd fe e4 90 be ef c5 e3 be
       0.15913866 -0.05734005 -0.28299707 -0.4448695
000200 79 59 28 be ec 89 31 be b7 fe 12 bd 4e 2c 99 be
       -0.16440381 -0.1733777 -0.035887446 -0.29916614
000210 7b 7e b2 be e2 32 db be bd b5 0d 3d 4b 47 0b be
       -0.34862122 -0.42812258 0.034597147 -0.13601415
000220 09 45 a4 3e 8b ba 79 3e da a6 d5 be 64 b9 0f 3e
       0.3208392 0.24387567 -0.4172886 0.14035565
000230 a3 eb b6 3e 86 29 53 3b 1c 42 89 3d cb f9 ee bd
       0.35726652 0.0032220795 0.067020625 -0.11668738
000240 b8 32 fa 3e b9 2e 91 3e b0 e2 b0 3e 3a 66 eb 3c
       0.4886682 0.2835596 0.3454795 0.028735269
000250 db ae 4e 3e 05 ac 9e 3e
       0.2018389 0.30990615

fc1.bias f4 [6]
000000 57 d4 9d bc ad 28 45 bd 94 6f 92 be 3a 1a 16 bf
       -0.01926629 -0.048134495 -0.28600752 -0.5863377
000010 0a 62 44 bf 60 a4 94 3a
       -0.76712096 0.0011340491

fc3.weight f4 [16, 6, 5, 5]
000000 01 39 3b be 80 fc 1a bf 87 b9 12 be d9 93 fb 3d
       -0.18283464 -0.60541534 -0.14328586 0.12284059
000010 b7 2c 5a be 02 be a9 3d 9d da 3c 3e f1 4e 00 be
       -0.2130612 0.08288194 0.1844277 -0.12530114
000020 0c 03 94 bd 48 c1 79 be d2 38 3b 3e b1 19 3a 3e
       -0.07227144 -0.24390137 0.18283394 0.18173863
000030 68 7b 1c 3e 94 95 1d 3e e7 e0 11 3c b9 cb 92 bc
       0.15281451 0.15389091 0.008903719 -0.017919408
000040 81 45 0f bc 54 74 80 3e 25 8d e8 3d 57 a4 b8 bc
       -0.008744598 0.2508875 0.11355046 -0.0225393
000050 65 72 bc bd 22 a6 9b be 67 6e 33 3e 5c 0c 4f 3e
       -0.092015065 -0.30400187 0.17522584 0.20219558
000060 b5 f9 51 3e b6 5d 71 3d f4 74 24 be fe ae 1f 3d
       0.20505412 0.05892726 -0.16060239 0.038985245
000070 e7 1c a3 bd 14 68 d6 3a 76 c9 a9 bd a2 21 c5 3c
       -0.07964497 0.0016357922 -0.08290379 0.024063889
000080 c6 1d ce bd 80 4d 82 be 5e 62 4a bd 91 46 f9 3c
       -0.100642726 -0.25449753 -0.049410217 0.030429156
000090 db 60 c7 be 5b cc 91 3d 35 a0 b2 3c d8 08 0e be
       -0.38941082 0.07119056 0.021804908 -0.13870561
0000a0 61 17 0e be 31 96 41 be 3e 20 bf 3d fb 99 41 3e
       -0.13876106 -0.1890495 0.093323216 0.18906395
0000b0 5f 02 95 bd e6 f4 57 be 5e ca 46 be a8 23 53 bd
       -0.07275843 -0.21089515 -0.19413134 -0.051547676
0000c0 c0 2f 71 3d ad 9a 81 3d 05 6d b5 bd 38 97 0f bc
       0.05888343 0.0632833 -0.088586845 -0.008764081
0000d0 9c ce c1 3d c7 c1 39 bd ad 7a 9a be 2d 0c 14 3e
       0.09463236 -0.045350816 -0.3017172 0.1445777
0000e0 c1 58 0b 3d 22 b9 a2 3d d3 57 ee 3d 56 95 02 be
       0.03402019 0.079454675 0.11637845 -0.1275228
0000f0 42 64 9e bc 9a b6 54 3e 5e 24 85 3e c4 96 89 3e
       -0.019334916 0.20772782 0.26004308 0.26872838
000100 99 29 20 be a9 af 7c be df 30 c4 3d 53 53 68 3e
       -0.15640868 -0.24676384 0.09579634 0.22688036
000110 38 d1 13 3e b9 45 5a be 50 7d 26 be c5 e7 6b be
       0.1443528 -0.2131566 -0.1625874 -0.23037632
000120 2b 2a 10 3e 80 ba f8 3d f1 7e cb bc 89 4d 28 bd
       0.14078586 0.12144947 -0.024840804 -0.04108957
000130 0d 1f 4f bd 02 73 0d 3e b1 a7 03 3e 21 10 2e 3e
       -0.05056672 0.13813403 0.12856938 0.1699834
000140 2a 89 17 3e d3 41 aa bc b6 4f 27 3e bd 2e 08 3d
       0.14798418 -0.02078334 0.16339001 0.033247698
000150 24 a8 63 3d eb 9b a8 3d 60 f2 7e bd 37 68 88 3b
       0.055580273 0.08232864 -0.062242866 0.004162814
000160 6b 10 21 3e 04 f8 bc 3d 93 5e 6b 3d 48 62 a7 be
       0.15728919 0.09226993 0.05746324 -0.3269217
000170 6e 60 98 bc 79 bc 2d bd f4 b7 2d be fb c8 90 bd
       -0.018600669 -0.04241607 -0.16964704 -0.07069584
000180 4d fd eb bd c3 aa 88 3e 85 56 40 3b ab 08 f0 bd
       -0.11522923 0.2669278 0.0029348445 -0.11720403
000190 46 e4 35 be a1 fa 09 be ce 3b ce bd 7c 66 32 3e
       -0.1776286 -0.13474514 -0.100700006 0.17421907
0001a0 d4 c2 6e 3e 93 09 89 bd 20 57 7e bd d3 86 3a 3e
       0.23316509 -0.06691279 -0.062094808 0.18215494
0001b0 62 be 64 3e 34 b4 71 3d ff 9f 21 3e dd b9 8d bc
       0.2233825 0.059009746 0.1578369 -0.01730054
0001c0 d1 44 25 be 4a ea b4 bd 44 f9 8a 3e 9f 9c 24 bd
       -0.16139533 -0.088337496 0.271433 -0.040188428
0001d0 9e 6e 13 bc 02 2a 95 be ca d8 7c bd f3 2f 66 bc
       -0.008998541 -0.29133612 -0.061730184 -0.014049518
0001e0 eb b3 6d bd 4f bc c4 3c ba 3f 5f be 7e 21 10 be
       -0.05803291 0.024015574 -0.21801654 -0.14075276
0001f0 0c ad a7 3e b0 37 e4 bd 6a 93 55 3d 8d 1e a2 3e
       0.32749212 -0.11143434 0.052142538 0.31663933
000200 11 47 37 bd 7a 63 09 be 1b 11 4d 3e 58 d3 26 be
       -0.04474551 -0.13416854 0.20026056 -0.16291559
000210 05 4e de bd 44 fd 9d bc 67 26 7f 3c 26 6e 8b 3c
       -0.10854725 -0.019285806 0.015573121 0.017020296
000220 f9 6e 93 be 99 4a 10 3e 8c 1a c0 3d 57 36 d1 bd
       -0.28795603 0.14090957 0.093800634 -0.10215443
000230 2a f7 74 3e ce fd 14 3e 9e 5e 64 be 1d 90 e2 bc
       0.2392241 0.14549944 -0.22301719 -0.02765661
000240 6d af 32 be c2 07 1b 3e e9 31 27 bd 89 f8 71 be
       -0.17449732 0.15139678 -0.040819082 -0.23629965
000250 23 80 23 be 65 92 ea 3d 10 48 e0 bd e6 9b 11 be
       -0.15966849 0.11453704 -0.10951245 -0.14219627
000260 3d 31 cf bd 50 ee 49 be 87 5c 4c be 8b e0 34 3e
       -0.10116813 -0.19719815 -0.19957171 0.17663781
000270 bb cc 9f 3e 9c 00 a1 be 23 f7 13 3e a1 61 a3 bd
       0.31210884 -0.31445777 0.14449744 -0.079776056
000280 f5 cb 7c 3e a3 83 2d 3e 87 a4 cc 3c ca 6b d6 bc
       0.24687178 0.16944747 0.024980797 -0.026174445
000290 c3 e8 d6 bb 58 be 14 be 28 69 6c 3e ff 54 31 3e
       -0.006558509 -0.14525735 0.23086989 0.1731758
0002a0 1c 4d 9b 3d ea 80 02 bc 0a e8 5d be 28 46 0c 3f
       0.07583067 -0.007965306 -0.21670547 0.5479455
0002b0 5f 3e 8f 3e a8 32 ba 3d 40 18 c1 bc 5b 4f de bd
       0.27977273 0.09091693 -0.023571134 -0.108549796
0002c0 d0 46 93 3d 39 87 ca bc 23 3f b0 3d 72 41 9c be
       0.07191241 -0.024722682 0.086057924 -0.3051868
0002d0 9a 58 4c 3d 17 b1 f8 3c d4 dd 48 bf 2c 5d e0 3c
       0.049889185 0.03035788 -0.7846348 0.027388178
0002e0 86 4c 0f 3e 66 cf 19 3e 6c 96 50 3e e2 68 57 bf
       0.13994035 0.15020522 0.20369881 -0.84144413
0002f0 19 3e 32 be 36 4f 3a 3e 08 ef dc 3b 7a c1 00 bd
       -0.17406501 0.18194279 0.006742362 -0.031434514
000300 e5 8b f7 be af f2 70 3e 94 94 4b 3e 6b 90 57 bb
       -0.4834892 0.23530076 0.19880897 -0.0032892476
000310 79 fb 8e bb 21 fc 0e bf 94 52 23 be b3 90 c6 3c
       -0.004363474 -0.5585347 -0.1594947 0.02423892
000320 f1 90 0d bd e2 bf f4 bc 26 2f 9f 3d 7e 62 3c bd
       -0.034562055 -0.029876653 0.07772665 -0.045992367
000330 91 ec 06 be 15 99 72 be 10 a6 38 be 30 fa 16 be
       -0.1317618 -0.23691209 -0.18032098 -0.14743876
000340 aa 32 5a bd ad 69 0e be 45 66 06 be 1a 91 84 bd
       -0.053270973 -0.139075 -0.1312495 -0.064729884
000350 b3 4a 0c 3e 34 ef 68 3d 93 84 31 be 62 d7 ba be
       0.1370037 0.056868747 -0.1733573 -0.3649245
000360 65 ac 49 be 32 df 8c bd c8 9f 39 be 0a 33 49 3c
       -0.1969467 -0.068785086 -0.18127358 0.012280235
000370 02 02 9d be f1 0f 90 bd ec a2 8b bd 6b 01 3d bd
       -0.30665594 -0.070342906 -0.06818184 -0.04614393
000380 1d c3 ba be b6 74 89 3c 18 1d 13 3e e4 9f 96 be
       -0.36476985 0.016779285 0.14366567 -0.29418862
000390 c3 24 20 be 38 2a 86 3e 9d 09 34 3e e0 3e 81 3e
       -0.15639023 0.26204085 0.17581792 0.25243282
0003a0 da 1d 2d bd 3f bd 83 be 92 f0 82 bd 13 47 46 3e
       -0.042264797 -0.2573032 -0.063935414 0.1936305
0003b0 73 ed c6 3d b9 5e 9a be d6 b6 0b be aa 19 3c be
       0.097132586 -0.30150393 -0.13643965 -0.18369165
0003c0 c1 6b 8c 3e 5f 15 f2 3d 7e 49 f0 bd e0 51 80 3d
       0.2742596 0.118204825 -0.117327675 0.062656164
0003d0 08 34 60 3e 49 96 87 bd a0 f9 c4 bd 03 df 82 be
       0.21894848 -0.066204615 -0.09617925 -0.2556077
0003e0 c3 13 02 be d7 70 e0 3e 21 46 17 be 50 bc b5 bd
       -0.12702851 0.4383609 -0.14772846 -0.088738084
0003f0 27 15 76 3d c0 2d 35 3c a1 4d 7a 3e 00 22 53 bd
       0.060078766 0.011058271 0.24443676 -0.051546097

fc3.bias f4 [16]
000000 3a 17 8e 3c 2b 43 48 3b ea c5 03 be a8 e6 c6 bd
       0.01734506 0.0030557613 -0.12868467 -0.09711963
000010 55 7b 3a be 5b a9 7f 3e 48 78 71 3e 93 db 13 3c
       -0.1821111 0.24966948 0.2358104 0.009024519
000020 d6 6b da 3e 8d c1 35 3e f1 72 96 be 3c 73 77 3c
       0.42660397 0.17749615 -0.29384568 0.015103158
000030 de c6 35 bd e6 c7 e3 bc 03 95 90 be d8 2f e1 bd
       -0.044379108 -0.02780528 -0.28238687 -0.109954536

fc5.weight f4 [120, 16, 5, 5]
000000 a6 f4 4a 3c cb d4 97 3e b6 01 50 3d 37 9b a9 bd
       0.01238743 0.29654536 0.05078288 -0.08281558
000010 90 37 e8 bc 76 89 f1 bd d0 e1 3a 3a ce 0b bf 3c
       -0.028346807 -0.11793797 0.00071289856 0.023321059
000020 b4 11 dc 3d 26 25 5a bd ec eb 70 bc 6c 53 8a be
       0.10745564 -0.053258084 -0.014704686 -0.2701677
000030 6d 78 9b 3d cf f3 79 bd 37 1c f9 bd 6b ff 82 be
       0.07591329 -0.06102353 -0.12163585 -0.25585493
000040 bb 79 92 3c 0b 2a 22 3e 2c 1d 3e 3d f4 b5 26 3e
       0.017880311 0.1583635 0.04641454 0.16280347
000050 32 7f f0 be 00 f4 f0 bd a6 c5 fc bd 0e 12 0e bd
       -0.46972042 -0.11765289 -0.12342386 -0.034685187
000060 18 a6 80 3e 4e 72 0a be 9a 45 ab 3e fe 93 46 be
       0.2512672 -0.13520166 0.3345154 -0.19392392
000070 d0 87 0c be eb 6d a6 3e e7 dc 19 3e ca 8e 5c 3c
       -0.13723683 0.32505736 0.15025674 0.013461778
000080 15 86 3f bd 1e 06 38 be 2c b6 52 3e 9f bf 7d 3d
       -0.04675873 -0.17971084 0.20577306 0.061950322
000090 ac 09 fa 3d d4 e0 f8 bd c3 51 b7 bd 8a e1 94 3d
       0.12208876 -0.121522576 -0.08951142 0.07269581
0000a0 4d 46 53 3d 85 f7 79 3e 9e 3d 9e be 11 c7 1a bc
       0.051580716 0.24410827 -0.30906385 -0.009446875
0000b0 a2 39 f7 3d 9e 57 5a be be ac f9 bd ba e5 9a be
       0.120715395 -0.21322486 -0.12191151 -0.30253392
0000c0 9f db a7 be 33 10 ce 3c 58 36 17 3e ba 4a 3d 3e
       -0.32784745 0.025154209 0.14766824 0.18485537
0000d0 39 a2 8d 3d e0 23 86 be a0 d7 64 be 2e 0a a9 bd
       0.06915707 -0.26199245 -0.2234788 -0.08253895
0000e0 9b 16 62 3d 95 3d cd 3e 7d d6 89 be cb fb 83 be
       0.05519734 0.40086046 -0.26921454 -0.2577804
0000f0 af 61 53 3e 9b b4 a5 3e 2c 6d 50 3e b9 91 3a be
       0.20642732 0.32364354 0.20354146 -0.18219651
000100 ad da 3c bd 31 7b 70 3e 3d 87 96 3e 40 92 b7 3d
       -0.046106983 0.23484494 0.29400054 0.08963442
000110 8f e2 f4 bd 49 c0 86 bd eb 27 84 bd ee 6b d2 bd
       -0.11957275 -0.06579644 -0.06452926 -0.10274492
000120 21 de 7d bd 0e d8 0f 3e 41 d3 ca bd 2e 96 fe bd
       -0.061979417 0.14047262 -0.09903575 -0.12430988
000130 bc ff 07 bf 54 df 45 be 7c 9c d3 bd 1b 10 75 bd
       -0.53124595 -0.19323474 -0.103325814 -0.059829812
000140 8e f3 43 3d bb b1 97 bd f2 45 64 be 40 ab 01 bd
       0.047839694 -0.07406946 -0.22292307 -0.031657457
000150 95 e4 4c be 31 7f 99 3e db 1f b7 be 55 21 53 3c
       -0.20009072 0.29979852 -0.3576649 0.012886365
000160 da 95 83 3e 5d 04 3b bc 82 1e 09 3e 1a 71 82 3c
       0.25700265 -0.0114146145 0.13390544 0.015923072
000170 63 35 49 be 68 ab 99 3c 73 09 0f 3e 95 d5 71 3e
       -0.19649272 0.01875849 0.13968448 0.23616631
000180 b1 a3 af 3d cd 68 56 3e 3c 01 8d 3e cc f3 17 3e
       0.085761435 0.20938416 0.27540004 0.14839095
000190 ff 17 13 bb b6 bd 3d bd 2a 3e a3 3b 9b 4c 4c bd
       -0.0022444723 -0.0463235 0.004981776 -0.049877744
0001a0 9e a5 9e be 6f 80 63 3e a5 d9 6f 3e b0 ea e7 b9
       -0.3098573 0.22216962 0.23422869 -0.0004423461
0001b0 78 bd ce bc 9b 99 28 bc a7 71 91 3e 0f 19 a5 3d
       -0.02523683 -0.010290529 0.28407022 0.0806142
0001c0 9b d2 a5 be eb 78 88 bd dc 5b 7c 3d 49 d2 7f 3e
       -0.32387242 -0.06663688 0.06161104 0.24982561
0001d0 56 69 06 bc 18 91 b4 be 46 4a 09 3d 94 29 1d 3e
       -0.008203825 -0.35266948 0.0335181 0.15347892
0001e0 dc 4a 5c 3c 9f 4c fa bc c5 ca 26 3e ca 96 d2 bc
       0.013445582 -0.030554114 0.16288288 -0.025706667
0001f0 ed 01 8e 3a d2 4f 62 3e e4 e4 a2 3e a6 72 59 bd
       0.0010834314 0.22100762 0.31815255 -0.053087853
000200 0a 79 5d 3a 6e 6e 18 be 1c 04 08 be 1a 2a 67 3e
       0.0008448517 -0.14885876 -0.13282818 0.22574654
000210 e6 e7 27 be d8 a2 22 3e 8f a0 60 be db 10 34 3c
       -0.16397056 0.15882432 -0.21936248 0.010990347
000220 9f fa 97 3d 62 24 7b be c5 29 03 3e ba 83 a9 bc
       0.07420849 -0.24525598 0.12808903 -0.020692695
000230 ce 82 a6 3c 83 48 08 3e 8a 47 ff 3c 75 5a 26 be
       0.020326044 0.13308911 0.031162042 -0.16245444
000240 d5 c7 43 bd 01 66 b1 3d 37 19 d1 bc fb 88 bb bd
       -0.047797997 0.08662034 -0.025524719 -0.09156986
000250 a5 f2 bc 3b 78 81 26 3e 77 37 ae 3d cd a8 1a 3e
       0.00576623 0.16260326 0.08506673 0.15103455
000260 8b 7c eb 3d f7 6c 26 3d 37 f8 fb 3c 12 4a 82 39
       0.11498364 0.04063126 0.030758006 0.0002485072
000270 ca 19 4b be d0 51 19 be c4 63 f5 bd 7b d7 84 bd
       -0.19834056 -0.14972615 -0.119819194 -0.06486412
000280 9c 3c a9 3d cb 9d 32 3d 07 36 2c be 9c 60 aa bd
       0.082635134 0.043607514 -0.16817485 -0.08319208
000290 62 d1 2a 3e 70 45 77 3e e1 28 95 3d 13 72 32 3e
       0.16681436 0.24147582 0.07283188 0.17426328
0002a0 32 d4 8d 3e c6 3d 39 3e cb c9 77 3e a0 9e 48 3e
       0.27700955 0.18089971 0.24198072 0.1959176
0002b0 ce 5d 40 3d 57 ed 33 bd 63 fd 84 3e f5 95 85 bd
       0.04696446 -0.043927517 0.2597457 -0.06522743
0002c0 82 da c3 bc 54 18 e4 3c e1 17 31 3b ba 38 0e 3e
       -0.023907904 0.027843632 0.002702229 0.13888827
0002d0 44 96 e5 bd 9f 4b 2b be 2f d3 eb bc 59 07 11 bd
       -0.112103015 -0.16728066 -0.028787224 -0.035407398
0002e0 9f c1 56 bd 1c cc f2 3d ad ba a7 3d 76 35 8f 3c
       -0.052430745 0.11855337 0.081899025 0.017481547
0002f0 ac 4e a9 be 30 b3 85 3c b5 b2 40 3d 3f 71 5d 3d
       -0.33067834 0.016320795 0.04704543 0.054063078
000300 61 3a c5 3e 88 b3 92 bd ac 0b 58 3d 80 e0 dc be
       0.38521102 -0.07163149 0.052745506 -0.4314003
000310 9c 34 a0 3e d9 57 58 3e f3 50 9c 3d 5e d3 84 bc
       0.31290138 0.21127261 0.07632627 -0.016214069
000320 4f 9d 39 3e 5f ce c5 be da be 5c 3c b1 c9 ad be
       0.18126415 -0.3863401 0.013473237 -0.3394294
000330 5a a6 60 be 30 82 f6 bd c6 f6 5e 3d a9 38 96 bd
       -0.21938458 -0.1203655 0.05443456 -0.07335026
000340 aa 86 d1 be ed 5f a5 3b b7 a3 12 bd b0 08 9c 39
       -0.40923053 0.0050468356 -0.035800662 0.0002976111
000350 fb 63 8c 3e 05 34 0a bc 15 4a 1f bc af a7 b0 bd
       0.2742003 -0.008435254 -0.009722252 -0.08625733
000360 ee 5b 6f be 7b d3 04 3e 70 b9 cd bd 73 b3 55 3d
       -0.23374912 0.12971298 -0.10045135 0.05217309
000370 e8 96 2a be 75 65 7e be 1b 54 69 3d 11 ad 8e 3d
       -0.16659129 -0.2484339 0.056964975 0.069666035
000380 1f 09 83 3e 0c af cf bd 2b 1a 8e 3e 42 43 11 3e
       0.25592896 -0.101408094 0.2775434 0.14185813
000390 92 bf a9 be c4 ef 17 3e a0 12 ec bb b4 0d 51 3e
       -0.3315397 0.14837557 -0.0072043687 0.20415384
0003a0 a2 b5 99 3c 5e 1f 2e be e2 58 82 3d b0 0b f2 bd
       0.018763367 -0.17004153 0.06364609 -0.118186355
0003b0 83 ea 8a 3e f3 88 7f be 3f df a4 be 74 16 c7 bd
       0.27132043 -0.24954586 -0.32201573 -0.097210795
0003c0 1d 7a 65 be c6 5f 58 3e 2f b2 c4 bd ac 45 fb bd
       -0.22409864 0.21130285 -0.09604298 -0.12269148
0003d0 05 87 98 3c bb d9 2b be 05 3b 09 3d 85 11 10 be
       0.01861907 -0.16782276 0.03350355 -0.14069183
0003e0 71 36 5b 3d 7d c3 45 3d f9 2b 52 be 8d 41 c1 bd
       0.053518716 0.048282135 -0.20524587 -0.09436331
0003f0 3e 10 b2 3d 9d cb 08 be fc 27 ee bd f6 7c 39 bd
       0.08694504 -0.13358922 -0.1162872 -0.045285188

fc5.bias f4 [120]
000000 02 53 f8 3d c4 98 3d 3d 7e 4d 16 3d 09 cb c7 3d
       0.121252075 0.046288267 0.036694996 0.09755523
000010 4f 00 49 bd 7c c7 20 3e c4 7e 80 bd a3 70 0b 3d
       -0.04907256 0.15701097 -0.062741786 0.034042966
000020 06 a1 99 ba 4a 0f 1e 3e a5 2e 77 bd 48 23 c2 bc
       -0.0011720962 0.1543552 -0.060347218 -0.023698464
000030 a3 00 38 be af 38 87 3d 96 6b 16 bc 9c f2 7d bd
       -0.17968993 0.066026084 -0.009180924 -0.06199895
000040 61 4a 15 bd 00 c7 b5 3d f5 92 80 3d 75 63 5c bd
       -0.036447886 0.08875847 0.0627803 -0.053805787
000050 4e b3 e2 bc 07 75 3b bd 01 14 80 3d 31 d2 c7 3d
       -0.02767339 -0.045765903 0.062538154 0.09756888
000060 61 90 81 3c 4b a2 13 3e 07 25 7e 3c cb 7e 77 bd
       0.015815916 0.14417379 0.015511758 -0.060423654
000070 50 e5 f7 bc 12 67 80 3c 20 bc 71 bd c8 52 5e bd
       -0.030260712 0.015674148 -0.0590173 -0.054278165
000080 23 24 4f bd 9e 72 51 bd 1f 9b 33 3e b3 d3 29 bd
       -0.050571572 -0.051134698 0.17539643 -0.041461658
000090 32 cc 4b bc d9 88 cd bb 01 ae fc 3b 3d fb 2c bd
       -0.012438821 -0.006272417 0.0077111726 -0.042231787
0000a0 5e 3f 55 3d 0f 27 43 bb 97 21 b3 3d 94 3f 29 3d
       0.052062385 -0.002977792 0.08746641 0.0413204
0000b0 75 ed 7b bb 97 aa 9d bd 88 07 64 bb 81 fe 71 3c
       -0.0038441096 -0.07698553 -0.0034794528 0.014770151
0000c0 ff a4 0a 3e 6b dc 08 bc 70 90 83 bd 01 f2 fe 3d
       0.13539504 -0.008353333 -0.06424034 0.12448502
0000d0 21 df 9d 3d e2 a5 e4 bb 62 01 e8 3d 56 ee ff 3b
       0.07708574 -0.0069777826 0.11328389 0.0078103943
0000e0 59 6c 47 3a a2 ef 24 bd ed 16 31 bc f4 7e d9 bd
       0.00076073926 -0.040267594 -0.010808689 -0.106199175
0000f0 f1 33 58 bd 73 a5 92 3d 60 54 c3 bc 0a 81 ca bd
       -0.05278391 0.07160463 -0.023843944 -0.098878935
000100 16 e6 a7 bc 61 38 08 bd 8c 56 91 bd 62 e2 1e 3e
       -0.020495456 -0.033256892 -0.07096586 0.15516046
000110 16 62 93 bd 21 20 08 bc bf 9d 3c bd 38 1b b9 3b
       -0.07196443 -0.008308441 -0.046048876 0.0056489967
000120 c9 62 2a bd d9 1a 2b 3d 4c f7 f9 3d ba f1 2e bc
       -0.041598115 0.04177365 0.12205371 -0.010677749
000130 90 cf c2 3c 94 60 f4 3c ea 4d 0e bd fb 92 05 bd
       0.023780614 0.029831208 -0.034742273 -0.032610875
000140 9f a2 a9 bd 75 02 0c 3e 1f c3 15 bc de 0f 3f 3d
       -0.08282971 0.13672812 -0.009140759 0.04664599
000150 aa 37 3f be 73 63 c4 3d 3b 26 f4 bc cb 73 35 ba
       -0.18673578 0.09589281 -0.029803386 -0.00069218565
000160 74 8a a8 3d ab 22 91 bd cd 3b 83 bc fc c2 ad 3d
       0.08229533 -0.070866905 -0.016019726 0.08484456
000170 b2 70 22 3e ba d7 51 bc 4f 11 1c 3c f7 44 05 3d
       0.15863302 -0.012807781 0.009525611 0.032536473
000180 b1 4c aa bd 22 db 99 bd 29 88 9e bd 1d 62 93 bd
       -0.08315409 -0.075124994 -0.07740814 -0.07196448
000190 70 7a 56 bc b8 75 dc 3d fb 52 ee 3d ef bf be bd
       -0.013090715 0.107646406 0.11636921 -0.09313952
0001a0 17 e3 8c 3d 40 3b 5a 3b 28 e4 58 3c 9b d5 ae 3c
       0.068792515 0.0033299476 0.01323799 0.02134209
0001b0 92 ff dd 3d 9f bc 10 3d 19 37 64 bc 87 9d 62 3e
       0.10839762 0.035336133 -0.013929152 0.22130404
0001c0 95 f1 2f 3e 52 d7 ce 3d 36 80 97 3e 14 21 a3 3d
       0.17182 0.10099663 0.29590005 0.079652935
0001d0 00 35 0e be c3 6a dd bc 15 f5 b7 bd a7 3e a6 bc
       -0.13887405 -0.027028447 -0.089822926 -0.020293547

fc6.weight f4 [84, 120]
000000 b0 58 5c 3d 5c 86 dd 3c 64 c7 4c be 3a dc 59 bb
       0.053795516 0.027041607 -0.19997936 -0.0033242838
000010 0d 19 99 be d6 6d 73 3d 6d 49 31 be 16 4e 47 3e
       -0.29901925 0.05943092 -0.17313166 0.19463381
000020 44 4e e1 bd 8c 43 77 bc ba b6 58 be 22 c7 d2 3d
       -0.11001256 -0.015091788 -0.21163455 0.10291888
000030 90 53 ca 3c 08 a7 7f bd af d5 3f 3e 28 45 7f bd
       0.024698049 -0.062415153 0.18733858 -0.062321812
000040 90 d3 82 bc 8f cd 8f 3e 16 da ef bd da 43 18 3e
       -0.015970021 0.28086516 -0.117115185 0.14869633
000050 b9 7b ab be 56 dd cd ba b4 11 57 3e 8d e7 0a ba
       -0.3349283 -0.0015706222 0.21002847 -0.0005298786
000060 7a 19 3d bc 27 0d 15 bd 4a 3e a7 bd 16 24 1c bf
       -0.011541719 -0.036389496 -0.081661776 -0.6099256
000070 d1 d4 92 3d 20 8d 3f 3d 3c 66 37 3e e0 d5 2e bc
       0.07169498 0.046765447 0.17910093 -0.010671109
000080 1f 81 aa 3d 4a 5a 38 3d 99 55 1a be 72 21 71 3d
       0.08325409 0.04500798 -0.15071715 0.058869787
000090 57 96 e5 3c 94 6c a2 bd 75 29 be 3c 2d 00 b2 bb
       0.02802579 -0.07930866 0.023213128 -0.00543215
0000a0 fa ff 34 be a0 4d af bb df 07 1d 3e 16 e2 d9 3c
       -0.17675772 -0.00534983 0.15335034 0.026597064
0000b0 8e 90 a6 bd f1 64 4c bd 37 0b ba 3d 0e 74 a9 3e
       -0.0813304 -0.049900953 0.0908417 0.33096355
0000c0 4d 6c 93 3e f6 26 d0 3c ec 08 70 bd 76 e9 cc 3d
       0.28793564 0.025409203 -0.05860226 0.10005467
0000d0 90 db 29 be 39 87 bb 3d 7b 6e 23 bd a9 a5 cf 3e
       -0.16587663 0.09156651 -0.039900284 0.40556076
0000e0 bc fa 8b 3d e5 b5 ac bd ef f6 a6 3e 22 40 53 be
       0.06834933 -0.08433131 0.3261027 -0.20629933
0000f0 09 54 11 3e 09 9a ae 3e 10 8f d0 3d 6f 1b 2d 3e
       0.14192213 0.34101894 0.10183537 0.16904996
000100 d0 17 84 bd 72 00 21 3d 10 84 20 3d 1d 7e d2 3d
       -0.064498544 0.039307065 0.039188445 0.102779604
000110 e0 da d9 3b 68 5e ee 3c 57 9d 0f 3d d9 a2 db 3d
       0.0066484064 0.02909775 0.03506216 0.1072442
000120 54 99 28 bd a6 1e 30 3e 15 8c 19 3c 1e 51 07 3d
       -0.04116185 0.17199191 0.009371777 0.033036344
000130 bf e7 2e 3e 92 2b 9d 3e 55 a1 d5 3c 53 87 21 bd
       0.17080592 0.30697304 0.026077906 -0.039435696
000140 72 af be 3d 23 3d 75 3e 2f 36 27 3e bc 81 38 3d
       0.09310807 0.23949103 0.16329263 0.0450456
000150 d1 0b 81 be 7f 2d 09 3d c9 a4 cb bc b1 17 f4 bd
       -0.25204328 0.033490654 -0.02485885 -0.11918581
000160 58 c3 76 be 79 f5 23 3d 1a 8e 45 3d 99 d1 32 bd
       -0.24097955 0.040029023 0.04823122 -0.04365692
000170 1b e2 95 3d 33 de be bd 1f 23 2d bf 7f 72 b6 3c
       0.07318517 -0.09319725 -0.67631716 0.022271393
000180 bd 8d 2b be 13 a9 0b bd b1 57 56 3d 52 8c ec 3d
       -0.16753288 -0.03409679 0.052329723 0.115502015
000190 02 92 3a 3d a9 4a 60 3e 24 01 17 bf d5 77 06 be
       0.0455494 0.2190348 -0.58986115 -0.1313165
0001a0 fb 27 37 be 24 7a 37 3d 0b ad 4b bd b2 7b 60 be
       -0.17886345 0.044794217 -0.049725574 -0.21922186
0001b0 f9 71 bf 3d 34 82 89 3c 1f e2 55 3c bf 65 60 3e
       0.093479104 0.016785719 0.0130544 0.21913813
0001c0 76 8b 62 bd 1e 7e bd 3d f7 f0 2f 3e 87 e7 e0 bc
       -0.05530878 0.092525706 0.17181765 -0.02745415
0001d0 e5 d4 46 bd 6f 9a f9 bd 7f 54 2b bb 57 41 30 bc
       -0.048542876 -0.12187659 -0.0026142893 -0.010757766
0001e0 0b b6 89 3d 93 2d bf be c2 d9 ac bd 32 8f 6c 3e
       0.06724175 -0.37339458 -0.084399715 0.231015
0001f0 13 65 a0 be fd 99 5d 3e c7 27 f7 3d ab a4 2d 3e
       -0.31327114 0.21640773 0.12068134 0.16957347
000200 76 77 7c 3d 3f aa 96 3d 16 17 59 3e 49 0c 4e 3c
       0.061637364 0.073566906 0.21200213 0.012576171
000210 d9 10 ae be e7 be 87 3c 5f 3e d1 3d 64 cf 22 3c
       -0.3399723 0.016570522 0.102169745 0.009937141
000220 ee 27 c2 bc ca 9f b1 3e 79 e2 db 3c 3b 4d bd bd
       -0.02370068 0.34692222 0.026841389 -0.09243246
000230 10 38 a7 bd bb bb 45 bd dd dc 04 3d d4 dc 26 3e
       -0.0816499 -0.048274737 0.032437194 0.16295177
000240 d8 ec ee bb 52 55 d9 bc b2 fa df bc fa a0 18 bc
       -0.0072914176 -0.026529942 -0.02734122 -0.009315724
000250 63 03 94 bd eb 38 76 3a 52 52 3b be f4 31 b9 bc
       -0.072272085 0.0009392637 -0.18293121 -0.022606827
000260 1f f5 b1 3d e1 bc 06 bd 80 99 e5 bd fd 99 e9 bd
       0.08689331 -0.032894973 -0.112109184 -0.11406324
000270 ce 14 8d bd 4c 6b a0 3a 9e 80 21 3d 8d 2d 6c bd
       -0.06888734 0.0012239008 0.0394293 -0.057660628
000280 97 01 db bc 6f 7d 96 3a d9 33 3a be 96 02 8b bd
       -0.026734157 0.0011481474 -0.18183841 -0.067876026
000290 38 94 ce bd 73 33 b6 3d a1 e6 b8 3d a6 2f d1 3c
       -0.10086864 0.08896532 0.09028364 0.025535416
0002a0 15 5c 72 3e 1f f6 30 3d a7 0d f1 3b d9 af 61 bd
       0.23667939 0.04320347 0.007356364 -0.055099342
0002b0 7a 1d b8 be fc 98 a1 ba ad c3 a5 be ea ca e2 3d
       -0.3595999 -0.0012328918 -0.3237585 0.11073859
0002c0 e2 22 b7 3d 52 d8 05 bd d4 52 82 be 83 73 26 bd
       0.089422 -0.032677002 -0.25453818 -0.040637504
0002d0 e7 92 6c 3d 36 00 04 3e f3 e5 f9 3d 67 09 5c bd
       0.057757284 0.12890705 0.122020625 -0.053719904
0002e0 c6 43 40 be a0 90 90 bc 80 33 ab 3b 6f 3f 66 3e
       -0.18775854 -0.017647088 0.005224645 0.22485135
0002f0 07 ba 4d bb 20 93 30 bb 7a 44 70 3b 60 b0 4e 3e
       -0.0031391399 -0.0026943162 0.003666191 0.20184469
000300 00 8b d5 3d 0c f2 79 3e b8 55 07 bd 90 fe 9a bc
       0.10426903 0.2440874 -0.033040732 -0.018920213
000310 6e 1e c0 be b2 e5 4a 3e ef 0a 82 bd b4 0a c5 bc
       -0.37523216 0.19814184 -0.06349742 -0.024052955
000320 98 03 da 3d 78 7b ab 3d 29 13 13 be 56 0c 95 3e
       0.10645217 0.08373159 -0.14362778 0.29110974
000330 8c 43 fc bd 4c 35 af 3d 79 c2 b6 bd 77 15 8a be
       -0.12317571 0.085550874 -0.089238115 -0.269695
000340 c8 fb c9 3c a9 49 46 3d 79 5c 7c 3d c6 65 59 3e
       0.024656191 0.04841009 0.061611626 0.2123023
000350 6e 9a 1f 3e 8d dc a2 3d 61 f7 37 be 69 61 3a 3e
       0.15586254 0.07952223 -0.17965461 0.18201222
000360 05 df 20 bc c1 bf 9d 39 6b 9c c9 bd 83 05 c2 3d
       -0.009818797 0.0003008824 -0.098442875 0.094737075
000370 25 af 89 3b 3a 46 82 3c a5 01 67 3c 52 04 8b be
       0.004201787 0.015902627 0.014099513 -0.27151734
000380 2c cc 4e be 27 64 ca 3d c9 e7 93 3e 92 d4 ee ba
       -0.20195073 0.09882384 0.28887776 -0.001822131
000390 78 a4 64 be e0 fa 54 3c da 35 9f 3d 56 48 fc 3c
       -0.22328365 0.012999266 0.07773943 0.030796211
0003a0 5c d2 52 bc af af f7 bd d8 7a 3e 3e 91 c0 33 3d
       -0.012867536 -0.12094056 0.18601549 0.043884818
0003b0 2b 0d 12 3e 85 4f 73 3d 61 a5 47 3e 75 1b a4 bd
       0.14262836 0.059402008 0.19496681 -0.080130495
0003c0 9d 1f a8 3e 50 77 04 bf eb 0e c4 be 99 a9 d0 bd
       0.3283662 -0.51744556 -0.38292632 -0.10188598
0003d0 31 00 64 3d a2 b8 25 3d 83 0f 6a 3e f8 e4 f9 3c
       0.055664245 0.040459283 0.2285748 0.030504689
0003e0 b5 a5 90 3d f4 33 e9 bd 38 d6 b4 3e e3 84 5f bc
       0.07062856 -0.113868624 0.35319686 -0.0136425225
0003f0 1b 9d c0 3e c3 09 78 be c4 0b 90 3d 04 62 e4 3c
       0.37619862 -0.24222474 0.07033494 0.027878769

fc6.bias f4 [84]
000000 b4 af 35 3e 21 b4 8a 3e 35 46 15 3e 40 d6 9b bd
       0.17742807 0.27090552 0.14577563 -0.07609224
000010 65 d0 42 3e 99 a2 61 bc 16 c0 94 3d 6d 9c 74 3e
       0.19024809 -0.013771676 0.072632 0.23887797
000020 7c 48 2a be 17 8c 05 bd a6 f2 25 3e 7e d2 25 3e
       -0.16629213 -0.032604303 0.16205844 0.16193578
000030 c8 fa a8 bd 6d b0 df bd 93 fc 46 3e 2b c9 2c 3d
       -0.08250958 -0.109223224 0.19432287 0.042184036
000040 61 b5 82 bd 08 f3 e9 3c 77 db 32 3e a5 6d 93 3e
       -0.063822515 0.02855827 0.17466532 0.2879459
000050 8b 20 5d 3e fb ce 94 3e 59 ab 21 3e b5 40 98 3d
       0.21594445 0.29064164 0.1578802 0.07434217
000060 85 ed 75 3d 10 4c c3 3d 51 86 ce bc a3 ef fc bc
       0.06004097 0.09535992 -0.025210531 -0.030875986
000070 91 83 4d 3d 5c 42 14 be 5b d9 32 bd a7 86 0c be
       0.0501743 -0.14478439 -0.043664318 -0.13723241
000080 fb 62 0f be 6e 06 d3 3c e0 8d 41 3c c5 30 13 3e
       -0.14002602 0.025759902 0.011813611 0.14374073
000090 be 2f c9 bd 9b 08 43 3e 56 63 a8 bc 51 54 fc 3d
       -0.09823559 0.19046251 -0.02055518 0.123207696
0000a0 cf f5 e6 3d 46 08 f5 bd c9 ac cd bc f0 c5 66 3d
       0.11277353 -0.11964469 -0.025106804 0.05634111
0000b0 e4 3b 6f 3d 09 02 37 3e 59 18 fa bd 1c 9c c7 3d
       0.058406726 0.1787187 -0.12211675 0.097465724
0000c0 64 29 19 3e 6c fc b6 bc e8 e0 e9 3d e1 e6 06 3d
       0.14957196 -0.022337161 0.114198506 0.032935027
0000d0 0b 21 01 be 9d 11 39 be a2 4b 79 bd 4d d6 ca bd
       -0.12610261 -0.18073125 -0.060863145 -0.09904156
0000e0 22 a9 a4 3c 47 fd ec 3d be ea 40 be c2 9a cd bc
       0.02010018 0.11571746 -0.18839547 -0.025098208
0000f0 f0 52 87 be 7a bf c5 3d 76 2c 80 3a c4 08 9d bc
       -0.26430464 0.09655662 0.0009778875 -0.019169219
000100 45 a9 c7 3d e1 43 88 3e 5e a4 f3 bc 50 c7 17 3e
       0.097490825 0.26614287 -0.029741462 0.14822125
000110 6c e0 76 3d c8 62 49 3d 13 55 94 bb 6b 46 7b 3c
       0.06027262 0.04916647 -0.004526743 0.015336613
000120 62 cb 2d 3e 67 79 6c bc 04 65 0e bd c9 42 d0 bd
       0.16972116 -0.014433241 -0.034764305 -0.10168988
000130 f0 de 2c 3e c0 42 6a 3d 97 21 a9 3d 36 0a 81 bd
       0.16881919 0.057192564 0.0825836 -0.06300776
000140 c7 ea e2 bc c5 96 77 3e ce fc e4 bd 26 81 5f 3e
       -0.027699841 0.24178608 -0.11181031 0.2182661

fc7.weight f4 [10, 84]
000000 57 52 c7 be c5 07 b4 bd 2b 6a e4 be 05 2f 04 3d
       -0.38930008 -0.087905444 -0.4461225 0.032271404
000010 b0 48 69 bd 33 09 51 3e e2 6f aa be 30 b0 a1 be
       -0.056954086 0.20413665 -0.33288485 -0.31579733
000020 9a 11 e7 be 69 58 51 be 26 75 69 3e 84 2e ee bd
       -0.45130616 -0.20443882 0.22798595 -0.11629966
000030 9c 42 a3 be dd 6f 85 bd 91 00 df 3d be e9 1c 3e
       -0.31886756 -0.06515477 0.1088878 0.1532354
000040 e4 d9 2f be b9 60 b4 be 1a 41 e2 3d cc d9 dc be
       -0.17172962 -0.35230044 0.110475734 -0.43134916
000050 41 cd 07 be a5 68 0f 3e 92 93 f6 3c 30 1b c3 3d
       -0.13261892 0.14004762 0.030099664 0.0952667
000060 67 ea 87 3e 4f 02 7a be db da 84 3e cf 6d ff bd
       0.26546022 -0.24414943 0.25948223 -0.12472116
000070 ce d7 fc bd 37 8c 34 bd 94 c9 0a 3d 0b 52 5c be
       -0.12345849 -0.04407903 0.033883646 -0.21515672
000080 da 81 9d 3e bd e0 f9 3d f1 07 a9 be ca 55 50 bd
       0.3076313 0.122010686 -0.3301387 -0.050863065
000090 d9 e4 33 be 6a 04 1e 3e 51 36 7f be 31 b5 63 be
       -0.17567767 0.15431371 -0.24923064 -0.22237088
0000a0 f7 1d 29 3e 58 35 22 3e d2 2f 85 3e 46 00 d9 3d
       0.16515337 0.15840662 0.26013047 0.10595755
0000b0 dd 76 82 be a2 77 a6 be a6 c1 49 bd aa 0f bd be
       -0.2548131 -0.32513148 -0.049256943 -0.36926013
0000c0 80 50 a4 be e8 ee 92 be 55 84 95 3d 1a 8e 62 be
       -0.32092667 -0.28697896 0.07300631 -0.2212452
0000d0 72 1f 14 bf db d0 21 3d 4a 18 41 3e 88 04 35 bd
       -0.5786048 0.03950582 0.18856922 -0.044193774
0000e0 bb be d5 be 42 ca 56 3e 60 82 61 be 92 04 e6 bd
       -0.41747078 0.20975593 -0.2202239 -0.112313405
0000f0 53 a1 88 be 41 e7 1c 3e b5 3a 0a 3e 24 cc 2b 3e
       -0.2668558 0.15322591 0.13498957 0.16777092
000100 08 33 d2 3d 2e b3 42 bf 03 e6 10 be fb 2d c8 bd
       0.1026364 -0.76054657 -0.14150243 -0.09774395
000110 0e 9e ba 3d 94 b9 6f 3c 71 28 dc 3d 02 1a 32 bc
       0.09112178 0.014631648 0.10749901 -0.010870459
000120 b3 29 9a 3d 3f 02 37 3e b2 ac 57 be 84 bd 66 bd
       0.07527485 0.1787195 -0.21061972 -0.05633308
000130 5d 61 33 be d2 17 fe 3d 87 0f fd be 0d 9b 63 3b
       -0.1751761 0.12406887 -0.4942591 0.0034729869
000140 ad 21 27 bd 90 a2 73 bd 9e 74 53 bd 8b ba d6 bd
       -0.0408036 -0.059481204 -0.051624887 -0.10484799
000150 b3 b7 9d 3c 3a d8 18 3e 5f b6 af bb 27 f8 a0 be
       0.019252634 0.14926234 -0.0053623165 -0.31439325
000160 94 4c f2 3c 04 06 33 bc a3 e1 2d 3e 8a dc 3a bc
       0.02957753 -0.010926727 0.16980605 -0.01140512
000170 95 ae 2f be 92 d7 e6 3e 28 a0 d0 be 9e d5 81 be
       -0.17156442 0.45086342 -0.4074719 -0.2535829
000180 1d 81 d3 3c a3 f0 51 be 12 b6 d8 bc dd 71 f9 be
       0.025818402 -0.20501952 -0.026454005 -0.48719683
000190 b0 dd 68 3d c8 8a 26 3d 84 26 16 3d eb 30 40 be
       0.056852043 0.040659696 0.036657825 -0.1876866
0001a0 99 aa 11 bf 78 4a 99 3d 23 f8 2b bf 42 63 0a bf
       -0.56900936 0.07484907 -0.671755 -0.54057705
0001b0 00 1b cd be e2 70 00 3e 9b 12 63 3e 9f 09 a2 bf
       -0.40059662 0.12543061 0.22175066 -1.2659186
0001c0 a6 1c 52 3e 9e 58 dd be 57 b5 ff bd d4 48 c4 be
       0.20518741 -0.43231672 -0.1248576 -0.38336813
0001d0 46 b0 8e 3e 8c d1 5e 3e 53 f8 38 be 7b 15 02 3d
       0.2786886 0.21759623 -0.18063478 0.031758767
0001e0 88 ca 6e 3e 7a 98 98 bd f4 03 88 bd ac f5 37 be
       0.23319447 -0.074509576 -0.06641379 -0.1796481
0001f0 e9 84 dc 3c 57 3c 2d be 8d 18 37 be d0 1c a3 3d
       0.026918845 -0.16917549 -0.17880459 0.0796448
000200 71 bd 1e bf 88 d8 1b 3c 7c 93 81 be fa 86 f9 bd
       -0.62007815 0.009512074 -0.25307834 -0.12183948
000210 cc a0 e2 3d 70 35 de be 2f 61 38 3e 28 8d 43 3e
       0.11065826 -0.43400145 0.18005823 0.19096816
000220 51 46 de bd 17 4f e5 bd b5 51 00 be 93 79 99 bd
       -0.108532555 -0.11196726 -0.12531169 -0.074938916
000230 e4 86 3b 3e fe 45 85 3d 28 f3 d8 3e 4e b5 8d bd
       0.18313175 0.065074906 0.42373013 -0.06919347
000240 6c 07 0b be e8 db d5 bd 7a bb 3c 3e 58 44 53 bf
       -0.1357705 -0.104423344 0.18430892 -0.8252616
000250 6e 8b 44 bf 13 03 78 3e 3b 03 13 bd 7a 02 d0 bd
       -0.7677525 0.24219923 -0.035891753 -0.10156722
000260 be 22 74 be ec 33 07 3e 69 c6 3f be 1d 06 fc be
       -0.23841378 0.132034 -0.18728031 -0.49223414
000270 01 53 54 3e b5 cd a0 bd e6 c5 ac be 30 b8 41 be
       0.20734788 -0.078517355 -0.33744735 -0.18917918
000280 29 68 7e be 50 16 11 be 56 ec 97 bd a0 5f 4b bf
       -0.24844421 -0.14168668 -0.074181244 -0.7944279
000290 37 1a 2f bc 7b 6a 8f bd df 9e af 3d 56 11 13 bf
       -0.010687402 -0.070027314 0.08575224 -0.5744833
0002a0 ad 1b 2d 3e 91 c7 d1 3d e7 d7 13 3e a8 ea 13 3e
       0.16905089 0.102431424 0.14437829 0.14444983
0002b0 09 cb 01 bd 7a e2 57 be 87 45 17 3e 20 db d9 3d
       -0.03168777 -0.21082488 0.14772616 0.10637498
0002c0 fd 87 0a be f7 38 93 bd 4c bb 82 3d f8 35 83 bc
       -0.13528438 -0.071885996 0.0638338 -0.016016945
0002d0 e1 49 4c 3e 41 f4 8c bd 07 ea 9a 3d b3 de 8a be
       0.19950058 -0.06882525 0.075641684 -0.2712303
0002e0 2d 50 2b bf e4 f3 b2 3d 6c 9a b1 3d 77 33 d9 3d
       -0.66919214 0.08737925 0.08672032 0.10605519
0002f0 10 55 a6 bd 9f 8f eb 3d 23 33 ea 3d 9e 62 be be
       -0.08121693 0.11502003 0.11435535 -0.37184614
000300 c7 e0 3d bd 00 25 f0 3d 3c 16 6f 3e 59 a6 75 bc
       -0.046356943 0.11725807 0.23348325 -0.014993274
000310 2a fa f6 bd e8 00 64 3d ea be 0a 3e 5e 87 a5 be
       -0.12059434 0.055664927 0.1354939 -0.3232984
000320 33 f0 2b 3e d8 0e 95 3d 82 4e 96 3e b4 c8 35 3e
       0.16790847 0.07278222 0.29356772 0.17752343
000330 97 1a 1a be ce 6b 41 be e6 1e 6a 3d 5a 21 a2 be
       -0.15049206 -0.1888878 0.057158373 -0.3166607
000340 70 e6 e9 3d 0e 4b 80 3e f9 ad 8f 3e da f2 12 3e
       0.114209056 0.25057262 0.28062418 0.14350453
000350 51 ab bc 3d ea 7b 32 be 5c 91 76 3c 20 c7 28 bf
       0.092123635 -0.17430082 0.015049305 -0.6592884
000360 22 1e c4 be 32 18 ef 3d e4 75 7e be 72 01 18 3c
       -0.3830424 0.11674537 -0.24849659 0.009277688
000370 f2 a9 3e be 31 0a e7 3c 6a f5 a3 3c 8b 53 d2 bd
       -0.18619516 0.028203102 0.020014483 -0.10269841
000380 4d 0d c8 3d 6c 2a aa bd 62 ff 62 3d fe 7c 32 be
       0.09768162 -0.083088726 0.055419333 -0.17430493
000390 dc 9c 5d be 06 80 01 3e f7 55 ff be 85 d6 1f 3e
       -0.21641868 0.12646493 -0.49870273 0.15609176
0003a0 e1 dd 17 be 62 2a 13 be 2a 20 d6 be 25 73 82 be
       -0.14830734 -0.14371637 -0.41821414 -0.25478473
0003b0 8e 68 d2 3d 9e 73 e8 be f5 96 66 3c 2e 33 b2 be
       0.102738485 -0.4540071 0.014074077 -0.34804672
0003c0 2d 93 aa be df a7 80 be 87 17 dc be ed 1d 68 bf
       -0.3331541 -0.25128075 -0.429867 -0.90670663
0003d0 c8 16 1e 3e 98 1e b1 be c0 51 ee bd a4 a6 eb 3c
       0.15438378 -0.34593654 -0.11636686 0.028765984
0003e0 f9 aa 33 3d 29 76 f8 bd 11 bf 28 3d aa 34 0f be
       0.043864224 -0.12131912 0.04119784 -0.13984933
0003f0 0c d9 ab be 9c 08 b3 3d 96 4e c4 bd fe f7 bf be
       -0.3356403 0.087418765 -0.095853016 -0.3749389

fc7.bias f4 [10]
000000 45 6e 81 bd 0b 0f 31 be e8 a3 07 3d d5 1e 9c 3a
       -0.0631986 -0.17290895 0.033115298 0.0011911044
000010 44 9a 07 bc df c1 82 bd 5b 38 30 3e 29 c3 f8 3d
       -0.008276526 -0.06384634 0.17208998 0.12146599
000020 4a 94 a6 bd 32 a6 3b bd
       -0.08133753 -0.045812793
